ModelZoo/models/my_model/NewNetpara_1218_rx_1sir_5_complex_channelnet.pth (torch_old, 132837 bytes, 54 tensors)

conv1.conv_r.weight f4 [32, 1, 3, 3]
00000000: 9f78 823e b9ef 993e abe5 963e b3db a4be
00000010: fedb 36be 12c7 2d3e 4e09 303e 4abb 2c3e
00000020: 1284 4f3e 30cd b23d c810 2abd 0269 7f3e
00000030: 1c24 cfbd b60e febd e2c6 7b3e deaf 693e
00000040: e057 97be 651f 973e 00c7 1f3d 3f29 a5be
00000050: e2e2 333e a601 cabd 7adf 523e 42d2 7c3e
00000060: 0350 56be 8696 553e 86f1 f9bd 6004 153c
00000070: 963a 00be c881 21be 326d 443e c088 e7bc
00000080: 12f5 583e 28d9 7dbe f00c fbbd f98d 803e
00000090: 761a 11be bbdc 14be 3ee4 163e 2034 883d
000000a0: a1b2 883e a04b d83d c3ca a93e c0eb 8f3b
000000b0: f18b 823e e2a5 4b3e 8dbf 893e 70b6 df3d
000000c0: 10a8 9cbd 969b 523e 04f1 98bd ba55 4a3e
000000d0: 1c8a b73d 406d d73c f84d 583d 7c00 943d
000000e0: 2b38 35be 264d 90be c772 883e 9798 90be
000000f0: dce3 c03d f0b8 cdbd 9570 9e3e 8048 9bbd
00000100: f8da 83be c627 3c3e 5027 c23c 46bc e1bd
00000110: 004c 91ba 4296 8abe 68bc 483d a0de ce3d
00000120: 5d19 a13e 97a1 80be 1a0e 303e 2efc 1f3e
00000130: 4252 163e 30a3 babd 184f a9be f4d3 b93d
00000140: c9b3 9d3e 2067 09be c00f a6bb 704e f3bd
00000150: 1e03 40be e05c 843d 2efa 90be e828 54bd
00000160: 56b7 123e 5de5 a33e 82e0 543e 4020 3fbe
00000170: e442 f93d b2f2 2d3e e38e 94be e658 c1bd
00000180: 30e0 f33d c6b6 fabd 254d 943e d000 cb3d
00000190: 9693 3fbe 66c9 103e 5a2b 023e 0083 c33b
000001a0: 38ed 113e e081 2dbe 7241 733e 638c 56be
000001b0: ae59 2e3e 58e1 6fbd dc98 e53d b4ae 87bd
000001c0: 8db4 8d3e 7e03 493e fb8c 1abe c8a9 53bd
000001d0: 4ac9 5a3e 40a1 8c3c 1cf7 e8bd 0617 073e
000001e0: 8205 8ebe 6090 51bd e0a5 9dbd 8650 c2bd
000001f0: 30e3 a0be 560e c4bd cc51 a8bd c0e3 9abb
00000200: 2008 6cbd e064 133e 9c01 88be 0033 30be
00000210: eace 4f3e 00e7 4abc c857 6b3d 5752 aa3e
00000220: f338 7dbe 0074 c03b b865 623d baa1 643e
00000230: b89e 383d 5072 99bc 367d 5b3e f01a cb3d
00000240: 8576 9e3e b42b 9c3d f006 ae3c f041 91be
00000250: 0001 953d 1ea4 2ebe a3f6 8ebe d2b8 2c3e
00000260: fa12 023e c301 11be 33de 853e b762 803e
00000270: 96aa 3fbe 860d 5fbe 1aab 763e 1861 4b3d
00000280: 0b4a 8a3e dc4e 9dbd 20c5 59be 7083 8e3c
00000290: d856 7bbd f72d a1be d636 35be 8077 30be
000002a0: 06a9 10be 1c10 d03d 7e88 59be b8dd 543d
000002b0: aa2c 7b3e 82c5 443e 986b 063e a068 b3bd
000002c0: d258 383e be46 083e b078 95bd e0ff adbd
000002d0: f238 81be 8b25 a5be f255 743e 0b05 03be
000002e0: de06 453e 9039 27be dc90 8d3d d83d 4dbe
000002f0: ee8f 783e 6868 133e ee3b 473e a68b 39be
00000300: 8c99 833d 3267 3e3e 7ee0 313e a779 973e
00000310: d085 88bd 3a20 533e 40d4 14bd bcaa bbbd
00000320: 2884 46be c0b2 65be 0ef0 363e 587b 9bbe
00000330: 7179 aa3e b256 4e3e b0c5 53be 6682 143e
00000340: c4ff d23d 68e9 09be ec3e 96bd 0044 f93b
00000350: f261 063e 60c9 073d 4e9e 1c3e 50b7 7dbe
00000360: 283b 20bd e058 a9bd 41da 9e3e f487 9cbd
00000370: ae69 96be d42d 96be e506 9b3e e6a7 99be
00000380: a299 3a3e b866 66be 5d0c 863e 1e43 5dbe
00000390: 8ec8 773e 0007 443d c0e6 6f3d 680c 45bd
000003a0: 87f4 8f3e 5003 74be ca62 693e 784e 62bd
000003b0: 16a3 15be c08c bcbd 817a 8a3e f0c4 a4bd
000003c0: 48d4 0abe 5c0b 963d 0a01 86be 9ea3 123e
000003d0: 6a79 aabe 6ee1 3ebe 42d0 0e3e 18ac 1f3d
000003e0: de40 223e 0139 a93e 106e c43c 5cef dabd
000003f0: a025 aa3d 836a 30be 7bc7 5ebe 4de8 a23e
0.25482652 0.30065706 0.29472098 -0.32198867 -0.17857358 0.1697047 0.1719105 0.1686832
0.20265225 0.08730543 -0.04151991 0.24942401 -0.10114309 -0.1240515 0.24587587 0.22820994
-0.2955923 0.2951614 0.03900814 -0.3225803 0.17567018 -0.09863596 0.20593062 0.24689582
-0.2092896 0.20858201 -0.1220427 0.009095281 -0.12522349 -0.15772164 0.1918228 -0.02826345
0.21187237 -0.2478987 -0.12258327 0.25108317 -0.1417025 -0.14537327 0.14735505 0.06650567
0.26698783 0.10561299 0.33162507 0.0043921173 0.25497392 0.19887498 0.26903954 0.10923469
-0.07649243 0.20567164 -0.07467845 0.19759265 0.08961889 0.026297212 0.05280873 0.07226655
-0.17697208 -0.2818386 0.26650068 -0.28241417 0.09418461 -0.1004504 0.30945268 -0.07582188
-0.25752997 0.18374547 0.023700386 -0.110222384 -0.0011085272 -0.27067763 0.049007803 0.10101056
0.31464663 -0.25123283 0.1719288 0.15623543 0.14679816 -0.09113157 -0.33068156 0.0907363
0.30801228 -0.13418245 -0.0050677955 -0.11880195 -0.18751189 0.06463027 -0.28315872 -0.051796824
0.1432775 0.32010928 0.20788768 -0.18664646 0.121709615 0.16987112 -0.29015264 -0.09440784
0.11907995 -0.122418925 0.28965107 0.09912264 -0.18708643 0.14139327 0.1271185 0.005966544
0.14250648 -0.16944075 0.23755434 -0.20951991 0.17026398 -0.058564514 0.11210796 -0.06625119
0.27676812 0.19630238 -0.15092842 -0.051675588 0.21365848 0.017166734 -0.113752574 0.13192376
-0.27738577 -0.051163077 -0.07697654 -0.09488015 -0.3142333 -0.09573047 -0.082187265 -0.004726857
-0.057624936 0.1439395 -0.26563728 -0.17206955 0.20293775 -0.012384176 0.05745676 0.33265945
-0.24728756 0.0058732033 0.055272788 0.22327319 0.04507324 -0.018731266 0.21434483 0.09917247
0.30949798 0.07625523 0.021243542 -0.2837062 0.07275581 -0.17054793 -0.27922544 0.16867378
0.12702551 -0.14160828 0.26146087 0.25075313 -0.18717417 -0.21782503 0.24088708 0.049653143
0.27009615 -0.07681057 -0.21266603 0.017396659 -0.061362118 -0.3148038 -0.176967 -0.17233086
-0.14126977 0.101593226 -0.21243474 0.05196926 0.24528757 0.19215968 0.13126981 -0.0876019
0.18002632 0.13308236 -0.0729841 -0.0849607 -0.25238758 -0.32255206 0.2386091 -0.12794892
0.19240901 -0.16330552 0.06912395 -0.20043123 0.24273655 0.14395297 0.19456455 -0.18119678
0.06425771 0.18594053 0.17370793 0.29585 -0.06666148 0.20617762 -0.03633523 -0.091634244
-0.19386351 -0.22431469 0.17865011 -0.3036754 0.33295777 0.20150259 -0.2068088 0.14502868
0.1030269 -0.13467944 -0.0733622 0.007606983 0.131233 0.03315103 0.15294763 -0.2477696
-0.039118916 -0.08268905 0.3102589 -0.076431185 -0.29377502 -0.2933184 0.30278698 -0.3001091
0.18222669 -0.22500122 0.26181307 -0.21607634 0.241976 0.04785824 0.05856967 -0.048107535
0.28116247 -0.23829389 0.22791591 -0.055250615 -0.14612994 -0.092065334 0.27046588 -0.08045375
-0.13557541 0.073263854 -0.26172668 0.14320228 -0.33295757 -0.18640682 0.13946632 0.03898248
0.15845057 0.33051303 0.023978263 -0.106901854 0.08307958 -0.17228131 -0.21755783 0.31817856

conv1.conv_r.bias f4 [32]
00000000: 4e91 5fbe bee1 5abe 1055 eebd 1032 dd3d
00000010: 0609 163e d9f9 a03e 26db 423e a89d 76bd
00000020: d8d8 4abe abfa 83be 38cb 70be 333a 23be
00000030: 0058 d7bd d2da 6a3e 3e47 7c3e d69a 3fbe
00000040: 8d85 aa3e ccfc bc3d aee6 75be 800b 52bc
00000050: b6b6 103e e4b1 823d ae00 783e f58f 923e
00000060: 76c6 13be 9b23 29be 60cc 503c 0080 65bd
00000070: 0e0c 493e 0409 cd3d f4ea a3be b101 8d3e
-0.21832773 -0.21375176 -0.11637318 0.10800564 0.1465188 0.3144062 0.19028911 -0.060208946
-0.19809282 -0.25777182 -0.23515022 -0.1594017 -0.105148315 0.22935036 0.24636552 -0.18711409
0.33305016 0.09227905 -0.24013779 -0.012820125 0.14132199 0.06381586 0.2421901 0.28625455
-0.14431176 -0.16517489 0.012744039 -0.056030273 0.19633505 0.10011485 -0.32015193 0.27540353

conv1.conv_i.weight f4 [32, 1, 3, 3]
00000000: c0d3 f53c 8066 5b3b 2ba1 8dbe 3ac0 713e
00000010: 666c b1bd 100f 90be c0de a9be 3856 0e3e
00000020: 8084 22bb 84dc aa3d 66f4 6a3e d0d9 fe3d
00000030: 288a 63be 48b2 a0be 5e7b 743e 40aa 00bd
00000040: 84f7 853d e728 8e3e 8e9a 0abe ab11 81be
00000050: 4031 f43b f159 a13e 2ad0 403e 40d3 fb3b
00000060: a833 68be fb29 6cbe 04de b03d c2fe 723e
00000070: 962b 3b3e 0218 373e c6e0 223e a057 31bc
00000080: d2d7 7d3e 401e cfbd 40c7 b23b a0b7 7ebd
00000090: 447a 90bd c633 063e 8047 0d3b 6004 15be
000000a0: 68b5 18bd bcfc 893d b038 aa3c 49fa 813e
000000b0: a0d7 453d ab6a 68be ae15 1f3e 207e bb3d
000000c0: 2bad 943e b455 b73d 1ea3 323e 5031 b8bc
000000d0: 1751 a33e 480e 5b3d 7cb1 cdbd 2808 573d
000000e0: 2039 63bd 891b 993e 4d0e 813e c97f 9a3e
000000f0: a30d 43be cc8c 823d 9323 25be 9094 123e
00000100: 2876 5c3d f0d8 b63c 7ea6 133e 8ae6 0e3e
00000110: 4af3 743e 2871 263e c8a0 60bd 17cd a9be
00000120: 6041 e4bd 3c4c a33d 0091 f73a 4c94 82bd
00000130: 8052 553d a062 63bc 4791 a73e 5a0d 623e
00000140: 0634 e5bd 0bce 21be 2050 3bbc da2c 4a3e
00000150: de99 6f3e 0e52 203e f3e1 0abe e03a 0b3d
00000160: df0f 943e c0f3 dcbc 3677 163e 6f13 883e
00000170: b696 0abe e8e2 45be f921 843e b8d8 2cbe
00000180: 9472 d03d ba9a 303e 2a20 633e 467a 7bbe
00000190: 7ced 84be 4b36 72be 5825 7e3d fc5f 84bd
000001a0: fc51 97bd 7e81 a4be c3bb 9d3e 10c8 8b3c
000001b0: 33c7 9bbe ece1 b6bd 83e0 1fbe 9c31 b4bd
000001c0: d0be bc3d df2c 93be 25cc 9e3e 2a86 083e
000001d0: b0d6 f2bd 10cb d43c 123a 453e 7919 8e3e
000001e0: 1ae8 343e fb1c 9d3e e027 423d c02d 223e
000001f0: 6090 11bd 081f 183d 20d8 1d3c fbb5 95be
00000200: b68f d4bd 60ae 1e3e 1af6 5f3e 52ca 89be
00000210: 2805 463d 1e36 7ebe 206f 3c3d ba4e 4c3e
00000220: ca8c 3c3e 169b 07be ac68 ebbd c0e5 263e
00000230: c604 82be 13a3 7bbe 3d4a 9c3e a808 0f3d
00000240: 9cd6 a2be fba4 34be b841 25be b08f ed3c
00000250: 105a 85bd 62c9 023e 8cd9 a0bd 50cc 6cbe
00000260: c89a 41bd 30aa 81be 8b48 6dbe 9024 8f3c
00000270: 1700 933e e000 f1bd 4c7a 8ebe f002 8abd
00000280: 9355 06be c0d9 c33c 534e 9b3e fc21 a13d
00000290: 9124 993e 58a1 53bd 4652 9abe 7870 21bd
000002a0: 862a 7fbe bec7 063e b0c7 fdbc e868 5bbe
000002b0: 40cd 8b3b 5c10 a5be 5085 d5bc 60e5 40bd
000002c0: 089c 423d 58a0 0b3e 0853 7bbe 0014 4f3b
000002d0: 869c 98be b899 64be de9b 99be 6893 2bbe
000002e0: 468c c9bd 1887 5abd d0f9 90bc 5077 b5bd
000002f0: 084b 7fbe 55c7 973e 20f6 e6bd 8ef8 7a3e
00000300: 8811 0bbe a69c 6bbe a00b a3bd 883a a0be
00000310: db8b 933e c2d6 5d3e 604a 06be e4ca 8bbe
00000320: f40a a5be 40c7 8b3d 306d 38be fe14 a5be
00000330: 984c 0dbe 980f 13bd 90db ecbc 80e2 e93c
00000340: 84be a2bd 6c52 c03d f929 823e 0093 a43c
00000350: 3efc 9abe 006e 5c3c ba5a 8fbe 9b91 9fbe
00000360: 8be1 5ebe e5eb 9d3e 58be 70bd 2640 d6bd
00000370: e848 2bbd f0cf e4bd be39 513e a8d8 08be
00000380: 60b4 5fbe 16b0 96be b6fd 12be 9852 2ebd
00000390: 58bd 7abe e03a 3b3d 24d0 c03d 486e 9fbe
000003a0: f6e6 26be 75cf a03e 7975 8f3e 00bb b03a
000003b0: 80d4 7abb 7393 64be 32a8 4b3e e03d 7ebd
000003c0: b9b6 8a3e f69e 99be dee1 293e 685a 5abd
000003d0: 8a2b 763e d049 53be 589f 03be 80c4 96be
000003e0: e0f4 0c3e a1e4 9c3e 7cc1 f93d 2b92 4bbe
000003f0: 6742 a33e 6d26 9b3e 7815 0a3e 3086 fd3c
0.030008197 0.0033477843 -0.27662024 0.23608485 -0.086632535 -0.28136492 -0.33177757 0.13900077
-0.0024798214 0.08342841 0.22944793 0.12443888 -0.22220671 -0.31386018 0.23875186 -0.031412363
0.065413505 0.2776558 -0.1353552 -0.25208792 0.00745216 0.31513932 0.18829408 0.007685095
-0.22675955 -0.2306289 0.08636096 0.23729995 0.18278345 0.17880252 0.15906057 -0.010824114
0.2478936 -0.101131916 0.0054558814 -0.062186837 -0.0705457 0.13105687 0.002155751 -0.1455245
-0.037282377 0.067376584 0.020778984 0.25386265 0.04830134 -0.2269694 0.15535614 0.09154916
0.29038367 0.089518934 0.17445037 -0.022484452 0.31897804 0.053480417 -0.10043618 0.052498013
-0.0554744 0.2990382 0.25206223 0.30175617 -0.19048171 0.06374511 -0.16126852 0.14314485
0.05382362 0.02232024 0.1441898 0.13955131 0.23920932 0.16254103 -0.054840833 -0.33164284
-0.11145282 0.07973525 0.0018887818 -0.06375942 0.05208063 -0.0138784945 0.32728025 0.22075406
-0.11191563 -0.15801255 -0.0114326775 0.19743672 0.2339854 0.15656301 -0.13562755 0.033991694
0.2891836 -0.026971698 0.14693913 0.26577327 -0.13534054 -0.19324839 0.2580717 -0.16879547
0.10178104 0.17246523 0.22180238 -0.24558362 -0.25962436 -0.23653524 0.062047333 -0.0646362
-0.07388684 -0.32130045 0.30807313 0.01706317 -0.30425414 -0.0892981 -0.15612988 -0.08798525
0.09216082 -0.2874517 0.31015125 0.1333243 -0.11857355 0.025975734 0.19260433 0.2775381
0.17666665 0.30686173 0.04740131 0.15837765 -0.035538077 0.03713897 0.009634048 -0.29240403
-0.10378973 0.15496206 0.21871224 -0.2691217 0.04834476 -0.24825332 0.046004415 0.19951907
0.18413082 -0.13242754 -0.11494574 0.1629858 -0.25394267 -0.24573927 0.3052539 0.034920365
-0.3180436 -0.1764106 -0.16138351 0.02899918 -0.06511319 0.12772134 -0.07853994 -0.23124814
-0.04726675 -0.25325155 -0.23172204 0.017473489 0.28711006 -0.11767745 -0.2782768 -0.067388415
-0.13118581 0.023907542 0.30333194 0.0786781 0.2991071 -0.05166754 -0.30140895 -0.0394139
-0.24918565 0.13162133 -0.030979007 -0.21426737 0.004266411 -0.32239044 -0.026064545 -0.04709375
0.047512084 0.13635385 -0.24543393 0.0031597614 -0.29806918 -0.22324264 -0.3000173 -0.1675545
-0.09841208 -0.05335149 -0.017697245 -0.08860648 -0.24930966 0.29644266 -0.11277413 0.24508879
-0.13580906 -0.23008975 -0.07961202 -0.31294656 0.2881764 0.21663955 -0.1311431 -0.2730323
-0.3223492 0.06825113 -0.18010402 -0.32242578 -0.1379875 -0.035903543 -0.02891329 0.028550386
-0.07946494 0.09390721 0.25422648 0.020089626 -0.3027057 0.01345396 -0.27998906 -0.31165776
-0.21765725 0.30844036 -0.058775276 -0.10461454 -0.041817576 -0.111724734 0.20432183 -0.13363898
-0.21846151 -0.29431218 -0.14354596 -0.042559236 -0.24486291 0.045710444 0.094147 -0.31138825
-0.16299042 0.31408277 0.28019312 0.0013483465 -0.0038273633 -0.22321872 0.1988838 -0.062070727
0.2709253 -0.3000409 0.16590068 -0.053308874 0.24040046 -0.20633626 -0.12853754 -0.29446793
0.13765287 0.3064318 0.12195107 -0.19879977 0.31886598 0.30302754 0.13484752 0.030947775

conv1.conv_i.bias f4 [32]
00000000: 45b9 a23e 62d4 313e ed0c 923e 48fc 043d
00000010: 85cd 8e3e 9ef6 16be 20a8 d8bd c82d 00bd
00000020: df00 873e 8607 173e fe59 91be 9e45 063e
00000030: 7af8 4c3e 7a3e 90be 7f03 a63e c80c 7f3d
00000040: c2be 5f3e 3b5e a7be 3308 42be 0216 053e
00000050: 8682 673e 9e89 5fbe 3005 78be 204e 683d
00000060: 305e e7bc 2ca0 b6bd 9e2a 83be b6f2 f1bd
00000070: 637e 92be e62c 79be 6d5a 933e a014 343d
0.31781974 0.17366174 0.28525487 0.032467157 0.27891174 -0.14742514 -0.10578942 -0.03129366
0.26367852 0.14748964 -0.2838897 0.13112494 0.20016661 -0.28172666 0.32424542 0.06226805
0.21850112 -0.3268908 -0.1894844 0.12996677 0.22608384 -0.2182984 -0.24220729 0.05671513
-0.028243154 -0.08917269 -0.25618452 -0.118138716 -0.2861205 -0.24333534 0.28779927 0.043964982

conv2.conv_r.weight f4 [16, 32, 1, 1]
00000000: f06b 50bd 32e9 ec3d 3c16 ebbd c172 263e
00000010: f07a 10be 00ee 0b3a 562f 983d cefd 32be
00000020: da8f aa3d 8698 f13d 9479 0cbd 1002 2b3c
00000030: 0c7f 2fbe 3024 313d 12a3 fd3d 3bca 1ebe
00000040: 6190 323e e865 0d3d 8b71 233e 0e44 68bd
00000050: 7a75 b43d 661c 863d 4bb6 97bd 368c 9a3d
00000060: a4bb 00bd d197 f0bd a024 f8bc 0ae3 1abe
00000070: 0ffe 253e dafe c43d db74 d3bd 7004 42bd
00000080: e79a 27be 8222 e43d cbb6 2d3e 0a41 e2bd
00000090: 8029 afbb c067 c6bc 40dd d7bb 30c9 fabc
000000a0: 30b9 1cbe 4020 0ebc 7a2a b33d df05 f1bd
000000b0: 91cd 133e a03b 923d 3418 02be 35e5 c9bd
000000c0: da49 b13d 58e7 34bd 2e1f 91bd a45b d8bd
000000d0: 507c b53c b0a1 04bc 1fc2 03be e06b 7e3c
000000e0: 6068 c8bd 8bf5 e5bd 7f59 16be 379a 333e
000000f0: de8b 993d 5e48 74bd b05c 443d cc26 52bd
00000100: 5964 1bbe 1e9c a2bd d2b8 883d a6e4 8dbd
00000110: 3830 fabc 443e 05be 125a bfbd 213b 16be
00000120: 99af 253e 408b 893c 3b89 1bbe a016 96bd
00000130: ed08 c0bd 1412 6f3d 6b2b 2a3e abb1 cdbd
00000140: daaa fa3d 31ad 143e 71ea 0a3e 5144 003e
00000150: 64a8 303d 7dc0 e3bd e2fa d13d ee73 9cbd
00000160: 001d adbc ad53 0a3e 9044 103d b0fa c13c
00000170: f2fe 14be af0c a8bd 008f 813d 9253 11be
00000180: 908f 8d3c 7a07 1cbe 241c b9bd a854 c6bc
00000190: fa9a 04be b885 923d 6c65 413d 2e12 cbbd
000001a0: 50c5 1ebd 9422 4b3d 14f2 943d a31d dabd
000001b0: 9a7a c83d aaf5 b73d faad abbd b06c ebbd
000001c0: 2084 3d3c 750b 013e b4d4 25bd 2931 1e3e
000001d0: 2404 19be c400 9dbd 461f a13d 3dd0 34be
000001e0: ad37 0c3e b0cc 35bd 70fe 59bd 353c 213e
000001f0: d79f bfbd 4046 d03c 809b fd3b 3925 14be
00000200: 9cc5 17be 48c7 32be 9225 5ebd 80d0 27be
00000210: 0092 35bb 7c3e f7bd 2f30 0f3e a7d6 ccbd
00000220: 2dd2 d0bd 36e0 bdbd 1c7e 2bbd 7056 e63c
00000230: cc9d 97bd c8ff 893d d9ae 1bbe 7780 c7bd
00000240: 0507 293e f661 823d 4ecf ebbd adf4 2abe
00000250: 0cdf 4bbd fc89 91bd ea54 2abe 6b7c 93bd
00000260: 10b6 36bc 0595 12be e9e1 183e 148d 943d
00000270: eafc c23d 88b6 96bd bc22 2fbe 27f8 aebd
00000280: 0097 19ba 6a74 a7bd c2d0 973d 799c 0d3e
00000290: e2bb d4bd 223f 07be 8c26 383d 7427 34bd
000002a0: 1e27 a33d 13e6 183e 89bd 17be 1bae 213e
000002b0: 0d0a e4bd f8bf 27be 3044 e6bc ce66 d43d
000002c0: 1075 9bbd 0077 273c 6388 9dbd 1b5f 0cbe
000002d0: 26f9 d13d 3ed6 54bd 6f05 a9bd cacf cd3d
000002e0: 2c35 11be f8ae 163d 7f19 19be 20a1 e13c
000002f0: f80b 613d 86a4 ab3d 6f26 85bd a041 4bbc
00000300: 5472 7d3d 9264 2dbe 88e7 1b3d 5125 2c3e
00000310: 0308 063e 2a3e de3d 3143 053e 435b 253e
00000320: 8ea4 05be 9580 dbbd e8b0 8a3d 55b5 88bd
00000330: 0708 043e e4ad f2bd d091 a1bd 60e8 483c
00000340: 56d8 24be 68cd 6c3d ae93 d73d da14 e93d
00000350: dea3 fe3d a6c9 9c3d 7e6f 993d b782 0a3e
00000360: 9701 a4bd 72bb e93d af5e 163e de48 d93d
00000370: c095 c6bd 87bb 293e d9d8 34be 953c 143e
00000380: d46c 073d acfb ecbd 20b0 cebd 5e2e 5ebd
00000390: 164f ba3d 1d26 153e 9579 b6bd fcfe b2bd
000003a0: 0091 8d3d bee9 b13d f996 293e 8624 d83d
000003b0: e26a 78bd d209 e43d 9e2e d63d e4ec 1ebe
000003c0: 16ab 823d 98a2 5b3d 4f3c dabd a79e 173e
000003d0: b0fb b7bd 7405 213d e7f5 313e ecd8 8ebd
000003e0: cb13 c5bd 75c4 e9bd 1f02 073e aff9 2d3e
000003f0: 5d2b a0bd 185c 0cbd d871 7d3d c6e6 1cbe
-0.050884187 0.11567916 -0.1147885 0.16254713 -0.14109397 0.0005337894 0.074309036 -0.17479631
0.08328219 0.1179667 -0.034295633 0.010437503 -0.17138308 0.0432474 0.12384619 -0.15506832
0.17437889 0.034521013 0.15961282 -0.056705527 0.088114694 0.06548385 -0.074078165 0.07546274
-0.031428948 -0.11747707 -0.030290902 -0.15125671 0.16210197 0.096189216 -0.10325023 -0.047367513
-0.16367684 0.11139394 0.16964261 -0.110475615 -0.0053455234 -0.024219394 -0.0065876544 -0.030613512
-0.15305018 -0.008674681 0.08748336 -0.11768698 0.14433886 0.07140279 -0.12704545 -0.09858171
0.08656664 -0.04416594 -0.07086025 -0.10564354 0.022154003 -0.00809519 -0.1286702 0.015528649
-0.09785533 -0.11228474 -0.14682578 0.17539297 0.07497381 -0.059639327 0.047939956 -0.05130653
-0.15174998 -0.07939933 0.06675877 -0.06928377 -0.03054057 -0.13012034 -0.093433514 -0.14670993
0.16180266 0.016790032 -0.15189068 -0.07328534 -0.093767025 0.05836685 0.16618125 -0.10043653
0.122396186 0.14519192 0.13565995 0.1252606 0.04312934 -0.111206986 0.1025293 -0.07639299
-0.021131992 0.13508482 0.035221636 0.023679107 -0.14550379 -0.08205544 0.06326103 -0.14192036
0.01728037 -0.15237227 -0.090385705 -0.02421029 -0.12949744 0.07154411 0.047215864 -0.09915577
-0.03876239 0.049593523 0.07272735 -0.10650184 0.097890094 0.089824036 -0.08382793 -0.1149534
0.011567146 0.12602027 -0.040486053 0.1544844 -0.14942986 -0.07666162 0.07867293 -0.17657562
0.13693114 -0.04438466 -0.053221166 0.15745623 -0.09356659 0.025424123 0.0077394843 -0.14467324
-0.14821476 -0.17458832 -0.05423505 -0.1638813 -0.002770543 -0.12072465 0.13983224 -0.10001879
-0.10196338 -0.092712805 -0.041868314 0.028117388 -0.07403144 0.067382395 -0.15203418 -0.097412996
0.16506584 0.06366341 -0.115141496 -0.16694899 -0.04977326 -0.071063966 -0.16633955 -0.07201465
-0.0111518055 -0.14314659 0.14929928 0.07253471 0.09520896 -0.07359034 -0.17103094 -0.08543425
-0.00058589876 -0.08176501 0.07412864 0.13829221 -0.10387398 -0.13207677 0.044958636 -0.043982938
0.079664454 0.14931516 -0.14818396 0.15789072 -0.111347295 -0.16381824 -0.028108686 0.10371171
-0.07590687 0.010221243 -0.07692029 -0.13708155 0.102525994 -0.05196213 -0.082529895 0.10049398
-0.1418044 0.036787957 -0.14951132 0.02754265 0.054943055 0.0838099 -0.06501471 -0.012405783
0.06187661 -0.16932896 0.038062602 0.1681111 0.13088994 0.108517006 0.13013913 0.16148095
-0.13051054 -0.107178845 0.067720234 -0.06675211 0.12893687 -0.11849573 -0.0788914 0.012262434
-0.1609815 0.05781308 0.105262145 0.1138093 0.12433599 0.07655649 0.074919686 0.13526426
-0.08008116 0.114127055 0.14684556 0.106096014 -0.09696531 0.16575442 -0.17660846 0.14476235
0.03306277 -0.1157144 -0.10092187 -0.054243438 0.09097116 0.1456532 -0.08909909 -0.08740041
0.06912422 0.08687161 0.16561498 0.10553841 -0.060648806 0.111346856 0.1045811 -0.15520054
0.06380288 0.05362186 -0.10656034 0.14806615 -0.089835525 0.03931184 0.1737896 -0.06974968
-0.09622916 -0.11414424 0.13184403 0.16989778 -0.07820771 -0.034267515 0.061876148 -0.15322408

conv2.conv_r.bias f4 [16]
00000000: 345f 34be 2c59 663d 9ec6 dc3d c35a 073e
00000010: 5ae0 fdbd d111 323e e2b6 a33d 9e6a ea3d
00000020: d00d 343c a8da 843c d697 b03d 80b5 7ebd
00000030: 6310 193e 291a 06be b01c 3c3c e483 333d
-0.17614442 0.056237385 0.10780071 0.13218217 -0.12396307 0.17389609 0.079938665 0.11446117
0.010989621 0.016217545 0.086227104 -0.06218481 0.14947657 -0.13095917 0.011481449 0.043826953

conv2.conv_i.weight f4 [16, 32, 1, 1]
00000000: f872 a3bc c5b9 b9bd 555e 0cbe f8aa 91bc
00000010: 2e9f 9a3d 949a 013d 3667 12be d2ce d83d
00000020: 5006 08be 5046 6bbd cdf7 c9bd 6f16 30be
00000030: d5e1 2c3e b0b8 10bc 32e4 2cbe 55ad 123e
00000040: e2ad 893d e861 7f3d 7c41 1e3d abe2 0b3e
00000050: 3cf2 7fbd e73a b0bd e0e9 273d 0e97 c83d
00000060: e00b 5d3c 4035 173d 0b0e 003e 5c1d 2ebd
00000070: 65ab 013e 6faa 303e 3491 17bd e052 b13b
00000080: 514a 193e 123c a93d 142f 1fbd 00f8 4eba
00000090: baec febd a839 c93c b4c3 29bd cae5 b03d
000000a0: 78bd c83c 0a3d fa3d 6a72 b63d c8ac a1bc
000000b0: 4900 203e 668b bb3d 23b7 2e3e 4aa0 813d
000000c0: ca8f ac3d e07f c8bd 79c3 2b3e 60a1 e0bc
000000d0: a0e3 9bbd 1c0d 13be 7743 303e 364c 87bd
000000e0: 454a 213e f70e 90bd 189e 93bc d52f 153e
000000f0: 81aa 2abe 107b 863d 9e76 c53d 7d2a 103e
00000100: 9db7 d3bd e856 363d 4bdb 243e 5668 fbbd
00000110: 6afd fcbd 6880 bf3c e7b1 b7bd 53a5 173e
00000120: 3075 b53c 5098 4a3d de4f 2dbe 2256 833d
00000130: ca4c f73d 404e c2bb 7d45 20be f688 b33d
00000140: f0ba 3bbd fed7 f23d 7249 bb3d acfe 9dbd
00000150: 00ad a9bc 9a81 ff3d 748d 0a3d 8e16 e2bd
00000160: 65d0 d9bd feda f33d 3e2c 1abe a479 3b3d
00000170: 6b58 323e 384d 24be 6f70 95bd c44f 3abd
00000180: 0eb4 983d beab d73d 5b4d 083e e4aa 663d
00000190: f0ce c93c 7730 243e 8043 c63c 9e0d 27be
000001a0: 807b bbbc 4c83 10be 7495 33be 70c9 083c
000001b0: a1d0 133e c0a8 0abc 40b5 1d3c d292 81bd
000001c0: 0508 1fbe b1b8 1f3e 9640 eabd 4a72 fc3d
000001d0: 7912 183e 6048 353d 69d7 90bd aca6 5c3d
000001e0: 1053 963c 5258 1bbe 17dc 113e a222 c2bd
000001f0: 4f7f 073e 40f2 9dbb c85d f7bc dbe9 1c3e
00000200: d09e 51bd bb26 a1bd 322a b43d 68ef 193d
00000210: a2a3 ac3d 50a3 e0bd f134 fdbd be86 853d
00000220: bf62 0b3e eb66 1f3e e0d1 b53b 8c23 1ebe
00000230: 706c 28be a0f8 aa3c e0f7 37bd 305b 0f3c
00000240: 8f0c e8bd 93a8 123e ec31 2cbe 60d9 ea3b
00000250: b28c ea3d 991d 83bd eb38 0d3e 68dc 90bc
00000260: b076 bfbd 5812 463d 80a3 dcbc 403a 23be
00000270: 2d39 183e 946f 0bbe ae1a fb3d 1be8 abbd
00000280: a18b 06be c951 103e 4bbe 2a3e 9815 c7bc
00000290: 9abd 04be c83f abbc f023 8f3d 6d0b 093e
000002a0: 80f6 46bc 784a 853c 542c 703d 2ef0 bc3d
000002b0: e09a 653d 91de babd 6d22 093e 924e 24be
000002c0: 10e7 efbc e866 29bd 06d9 2dbe b386 263e
000002d0: d0cb 7dbc 2d88 c1bd d00a 01bc e4f6 4b3d
000002e0: 3092 12bc 3cac 803d 6b21 1d3e 8220 fe3d
000002f0: b82a 953d 09a8 183e 9ccd 713d 5ab6 25be
00000300: 603b 28bd 5387 303e 2779 1dbe 3cc4 8fbd
00000310: 2599 10be a268 b73d 7acf 24be 7c3b f0bd
00000320: e8a1 4abd e8f8 e03c 426e fc3d 647c a1bd
00000330: fda3 babd c0fb c1bc 650b 2a3e 3e5a d1bd
00000340: f809 6b3d c005 c53c e353 20be 8cfa 263d
00000350: 054e 13be de56 7bbd 3293 a13d f6ef 973d
00000360: c6b0 05be 26e4 98bd 88b4 393d b1a7 2f3e
00000370: 7225 01be 9450 4b3d 2285 d03d ec20 3bbd
00000380: 142b 653d c0f0 e9bc c87b 833d 4f88 bfbd
00000390: 08f5 90bd d212 f1bd b946 27be d21f c53d
000003a0: f0d4 7f3d e8bd 5b3d 77e7 233e e89c abbd
000003b0: 7152 0b3e b30a 273e 1398 303e 48a9 fa3c
000003c0: 2f46 083e 487f 253d 02ec 973d eaac ad3d
000003d0: 5edc 75bd 30a5 b2bc a19a 023e d045 92bc
000003e0: d09c 40bd b628 fc3d 0015 50bd 3134 8bbd
000003f0: dab3 da3d 7725 0abe 4ba4 173e a7db e8bd
-0.019952282 -0.09068636 -0.1370786 -0.01778172 0.07549892 0.031641558 -0.14297184 0.10586323
-0.13283658 -0.057440102 -0.098617174 -0.17196058 0.16883023 -0.008833095 -0.16883925 0.14323933
0.06722619 0.06234923 0.03863667 0.13660686 -0.062486872 -0.08604985 0.040994525 0.097944364
0.013491601 0.036916018 0.12505357 -0.042508468 0.12663038 0.17252515 -0.03700371 0.005411491
0.14969756 0.08263411 -0.038863257 -0.0007895231 -0.12447496 0.024563625 -0.041446403 0.08637579
0.024504408 0.122186735 0.089085415 -0.019735709 0.15625109 0.091574475 0.17062049 0.06329401
0.08425863 -0.09790015 0.16773786 -0.0274207 -0.076117754 -0.1436047 0.17213236 -0.06606333
0.15750988 -0.07034104 -0.01801972 0.14569028 -0.16666605 0.06566441 0.09641765 0.14078708
-0.10337756 0.044516474 0.16099279 -0.1227576 -0.123530224 0.023376659 -0.08969479 0.1480916
0.022150606 0.049461663 -0.16924998 0.06412913 0.12075193 -0.0059297383 -0.15651508 0.087663576
-0.045832574 0.118576035 0.09144868 -0.077145904 -0.020712376 0.124758914 0.033826306 -0.11039458
-0.10635451 0.11907004 -0.1505594 0.045770302 0.17416541 -0.16045082 -0.07296836 -0.045486227
0.07456218 0.10530804 0.13310759 0.056315318 0.024634808 0.16034113 0.024202108 -0.16313788
-0.022886038 -0.14112586 -0.1753748 0.008348808 0.14435054 -0.008463085 0.009625733 -0.06326832
-0.15530403 0.15597798 -0.114381 0.123264864 0.14850797 0.044258475 -0.07072336 0.05386989
0.018350154 -0.1517041 0.14244114 -0.09479262 0.13232158 -0.004820138 -0.030196086 0.15323584
-0.051176846 -0.078687154 0.087971106 0.03758183 0.08429648 -0.109686494 -0.123636134 0.06519841
0.13611887 0.15566604 0.0055487007 -0.15443248 -0.16447616 0.020870507 -0.044914126 0.008749768
-0.1133052 0.14322118 -0.16815919 0.0071670264 0.11452617 -0.0640213 0.13791244 -0.017683223
-0.0934881 0.048357338 -0.026933432 -0.1594019 0.14865561 -0.13616782 0.12260948 -0.0839388
-0.13139202 0.14093699 0.16674154 -0.024302289 -0.12962952 -0.020904437 0.069892764 0.13383265
-0.012143731 0.016270861 0.058636025 0.09225498 0.056055903 -0.091244824 0.13392039 -0.16045597
-0.029284984 -0.041357905 -0.16977319 0.16262321 -0.015490487 -0.094498016 -0.007876113 0.049796
-0.008945987 0.06282851 0.15344779 0.12408544 0.072835386 0.1490785 0.059033975 -0.16182843
-0.04107225 0.17239122 -0.15378247 -0.070198506 -0.1412092 0.08955504 -0.16094771 -0.11730096
-0.049470812 0.027462438 0.123257175 -0.07885054 -0.091133095 -0.023679614 0.16605909 -0.102222905
0.057382554 0.024050593 -0.15657 0.040766284 -0.14385231 -0.06136214 0.078894034 0.07418816
-0.13055715 -0.07465391 0.045338184 0.17153813 -0.1261194 0.049637392 0.10181643 -0.045685694
0.055949286 -0.028557181 0.06420094 -0.09352171 -0.07077986 -0.11771168 -0.16335572 0.0962521
0.062458932 0.053647906 0.16006266 -0.08379537 0.13605668 0.16312675 0.17245512 0.030598298
0.13308023 0.040404588 0.07418062 0.08480246 -0.06002461 -0.021807283 0.12754299 -0.017855555
-0.047024548 0.123124525 -0.050801277 -0.06797064 0.10678835 -0.13490854 0.14808767 -0.1137002

conv2.conv_i.bias f4 [16]
00000000: 769d d03d 589d 8c3c c0d6 fcbb b466 57bd
00000010: 3a87 df3d 7066 763c 80df 66bb 40a2 ddbc
00000020: a09c 27be 561a f93d 2709 173e 4152 1b3e
00000030: ca13 c53d 2ea7 c3bd 76d3 07be ea73 f83d
0.10186283 0.017164871 -0.00771603 -0.05258818 0.10914464 0.015039071 -0.0035228431 -0.027054906
-0.16368341 0.12163226 0.14749585 0.15168096 0.09622915 -0.09553371 -0.1326426 0.12131484

conv3.conv_r.weight f4 [1, 16, 5, 5]
00000000: 8709 003d 3279 c93c ce7c f63c 408f 523a
00000010: 8035 893b 524f ef3c ad10 32bd a0fb 3cbd
00000020: 68d9 75bc 3311 d6bc e72e debc 57f9 e1bc
00000030: d071 223b e805 61bc 322d 853c f480 95bc
00000040: d852 46bc 0076 0bbc 8afd f33c 626d d93c
00000050: 4735 3bbd 1b76 1e3d 8906 3a3d 241a 633c
00000060: 41c5 013d 0c4a 65bc 5aef e23c 487a 373c
00000070: d263 d73c 20b9 9abc 6f13 473d 86c6 a83c
00000080: 8dab 3a3d 009c af39 c9ea 153d 005e c8bb
00000090: c8b7 03bd 976c a1bc 7237 07bd b034 42bb
000000a0: 5057 653b 46db ac3c 1c5c 5a3c 96b3 ca3c
000000b0: 76ff e93c 70b4 e2bc 359a 4bbd 3311 dfbc
000000c0: 7a55 e03c 6875 96bb f827 60bc 3043 2ebb
000000d0: b797 2c3d 83dd 0cbd ae21 873c 00d1 abbc
000000e0: 1d60 bebc aeae d13c c920 413d c063 49bc
000000f0: 8b64 44bd 1f61 093d 6503 18bd 80a1 563a
00000100: b727 0d3d d290 12bd dd11 f1bc a9c8 113d
00000110: 38ed 0fbc 65b5 2b3d 4a23 f7bc 2e27 953c
00000120: b4c1 513c 5869 d4bb f2cd e73c d0c3 593b
00000130: bdb3 22bd 0993 2b3d 010f 3a3d e685 aa3c
00000140: efa1 4bbd 5b5c 45bd 7c2d 8cbc b3cb 4bbd
00000150: 4d38 e1bc 620c cd3c cd0d 0c3d a809 3abd
00000160: f3c7 2e3d 97f9 0f3d d381 393d bfe0 38bd
00000170: 608d 823a 5a7c c13c 460b 82bc b1b0 4a3d
00000180: c018 a7ba 9d0d 0a3d 76b9 b93c 06b7 913c
00000190: 6d0d 27bd 80a4 29bd cb23 24bd 94ca 223c
000001a0: ddc2 1e3d 4962 3a3d 80ff 37bd e082 303b
000001b0: 13a4 cfbc a2ce 9d3c 598f 173d de4c 1abd
000001c0: 9366 c6bc 829c b93c 8018 d8bc 50e1 45bd
000001d0: e8dc 09bc 0076 bfbb 755a 403d 6826 ea3b
000001e0: c93d 033d ea3f db3c e3ec 43bd f61c 9c3c
000001f0: 008f b6bb 00a3 6139 ce3d 09bd c3e9 17bd
00000200: 6839 3abc 2c4e 353c 68d8 a33b aa1d 9bbc
00000210: e8df b63b 20cc 59bb 34c7 7a3c 2302 323d
00000220: 4927 483d 7fac 163d a29b 13bd c070 ccbb
00000230: 806e abbc ff4b 0e3d 8a84 dd3c e7aa 9ebc
00000240: 1e2e 9e3c cfc4 4bbd b0d8 d0bb c03c 553a
00000250: c05d b23b ec3e 153c 2ab3 fe3c b33a 30bd
00000260: 9ace 0cbd 121f c53c 9c86 92bc c0c7 c63a
00000270: 68f6 4b3c 2832 12bc b1f3 413d 7680 e13c
00000280: 5820 203c aabb 953c d7ae b1bc f757 273d
00000290: c0c9 95bc f756 c1bc 736d 1a3d 3ab2 913c
000002a0: 6620 e73c 9c97 643c 0e24 ff3c f844 48bc
000002b0: 5d2f 1dbd f3b5 2e3d a6f8 c63c eda9 0cbd
000002c0: 481f 053c 68c2 48bc 782e 1cbc 2caa 7dbc
000002d0: 004f 9cba c083 8aba c460 6e3c 3ab1 abbc
000002e0: 9843 43bc 3274 39bd 0d5e 423d 2525 1fbd
000002f0: cd85 1dbd d308 4cbd 70c0 a4bc 8082 143c
00000300: b009 ea3b 003a f7bc 50ba abbc 20a8 5a3b
00000310: 2294 e13c e861 f83b 8086 35bc 6409 523c
00000320: 7710 37bd b9c7 333d 8010 2bbc fef9 823c
00000330: 4422 523c 55c2 313d 45c6 013d 10d1 de3b
00000340: 0c73 8fbc edc4 2a3d 0532 1e3d c013 83bb
00000350: 3ae4 42bd af6d 233d d8a3 bebb a4e5 8ebc
00000360: f7d4 d2bc 8618 8cbc 9825 093c 905d b5bb
00000370: c2df ba3c ca34 f1bc 6d35 2e3d 653a 403d
00000380: 9249 44bd b803 063c 7a16 83bc 621b ea3c
00000390: a07a bb3a 7aff 893c ce88 a43c 5a50 ab3c
000003a0: 6058 00bc 28ad fe3b 72c0 e03c e278 d23c
000003b0: 1b93 153d c848 05bc 20cc 2dbb b7a2 c1bc
000003c0: 39b8 193d d042 8c3b 4096 e3bb 8aea b53c
000003d0: f815 06bc 0004 7bba 8929 1c3d 25c9 453d
000003e0: fbe3 203d cc2d 2a3c 8057 65bb 2d42 3fbd
000003f0: 50ad 7abb 4013 97bc d0b8 2d3b e387 403d
0.031259086 0.024593923 0.030088808 0.000803221 0.004187286 0.029212628 -0.043472935 -0.046138406
-0.015005447 -0.026131248 -0.027121974 -0.027584715 0.0024787076 -0.013734318 0.016256902 -0.018249966
-0.012104712 -0.00851202 0.029783983 0.026541416 -0.045705106 0.038686853 0.04541639 0.013861213
0.031682257 -0.013994705 0.027702022 0.011198588 0.026292715 -0.018887103 0.048602518 0.020602476
0.04557376 0.0003349483 0.03660086 -0.0061147213 -0.03215769 -0.0197051 -0.03301186 -0.0029633455
0.003499467 0.021100651 0.013327625 0.024743836 0.028564196 -0.02767393 -0.04970761 -0.02722988
0.027384508 -0.0045916326 -0.013681404 -0.002659034 0.042136874 -0.034390938 0.016495552 -0.020973682
-0.02323919 0.02559599 0.047150407 -0.012291849 -0.047947448 0.033539888 -0.037112612 0.00081875175
0.034461703 -0.035782643 -0.029427463 0.035591755 -0.008784585 0.04192104 -0.030168194 0.018207159
0.01280253 -0.0064822845 0.028296445 0.0033228286 -0.039722193 0.04188827 0.045424465 0.0208158
-0.04971498 -0.04818378 -0.017111532 -0.04975481 -0.027492667 0.025030319 0.03419285 -0.045419365
0.042671155 0.035150137 0.045289826 -0.04513621 0.0009960346 0.023618866 -0.015874516 0.049484912
-0.0012748465 0.03370439 0.022671442 0.017787468 -0.04078429 -0.041416645 -0.040073197 0.009935994
0.038760055 0.04550389 -0.0449214 0.0026933476 -0.025346791 0.01926357 0.03700194 -0.037670963
-0.024218833 0.022657637 -0.02637887 -0.048310578 -0.008414485 -0.005842924 0.046961267 0.0071456917
0.032041345 0.026763875 -0.047833335 0.019056778 -0.005571246 0.00021518394 -0.033506207 -0.037088167
-0.011366226 0.011066001 0.005000163 -0.018935043 0.005580891 -0.003323324 0.015306283 0.04345907
0.04886559 0.0367856 -0.036037095 -0.006239027 -0.020926714 0.034740444 0.027040739 -0.019368602
0.0193091 -0.04974824 -0.0063734874 0.00081343576 0.005443305 0.00910924 0.031091291 -0.04302473
-0.034376718 0.024062667 -0.017886452 0.0015165731 0.012448885 -0.008923091 0.047351543 0.027527075
0.009773336 0.018277962 -0.021689815 0.040855374 -0.018284678 -0.023601038 0.037702035 0.01778518
0.028213691 0.013952162 0.031145122 -0.012223475 -0.038375247 0.04265399 0.024288487 -0.03434174
0.008125134 -0.012253381 -0.009532563 -0.015482467 -0.0011925399 -0.0010567829 0.014549438 -0.020958532
-0.011917971 -0.045276828 0.047452975 -0.038853783 -0.03845768 -0.049813103 -0.020111293 0.009064317
0.007142268 -0.030179024 -0.020962864 0.003336437 0.027536456 0.0075800307 -0.011079431 0.012819622
-0.044693436 0.043891642 -0.010440946 0.015988346 0.012825552 0.04339822 0.031683225 0.0067998245
-0.017510913 0.04169171 0.03862192 -0.004000157 -0.047580935 0.039899524 -0.0058178715 -0.017443486
-0.025736315 -0.017101537 0.008370779 -0.005534835 0.022811774 -0.029444117 0.04253142 0.04693069
-0.047921725 0.008179598 -0.016001929 0.02857751 0.0014303513 0.016845454 0.020084765 0.020912338
-0.00783357 0.0077721067 0.027435515 0.025692407 0.036517244 -0.008135028 -0.0026519373 -0.023637159
0.037529204 0.0042804256 -0.0069454014 0.022206564 -0.008183949 -0.0009575486 0.03812555 0.04828753
0.03927992 0.010386895 -0.003499478 -0.04669397 -0.0038250275 -0.018441796 0.0026507862 0.04700459

conv3.conv_i.weight f4 [1, 16, 5, 5]
00000000: a748 303d c178 453d 6856 ad3b 2161 053d
00000010: ca47 8bbc 505b d5bb 9796 bdbc cc48 1b3c
00000020: 8aa9 e8bc 309d d13b 58f6 7dbc 18fd be3b
00000030: fd6e 3cbd f387 3cbd 8803 33bd 88dd 453c
00000040: 75f7 47bd ce90 10bd b084 85bb 1d16 39bd
00000050: 845a 583c 953b 383d 28b4 193c d991 023d
00000060: d132 343d 6cbe 03bc 6064 36bc 1d4d 0b3d
00000070: e2b1 813c 50d5 2dbd 2225 8f3c 0a19 89bc
00000080: 5d94 d3bc c0dc 9e3b f8b8 37bd a066 dabc
00000090: d8c3 b13b 9686 05bd 4cb9 22bc 7ff0 3cbd
000000a0: 4817 63bc ce8c a23c 585f 983b 5ddd 22bd
000000b0: 265e e23c 623e ca3c 9344 3a3d b23b b13c
000000c0: 9181 1b3d 00f4 25ba 00bd 593b cb10 403d
000000d0: 2321 d2bc 66c7 863c 0030 f939 d8aa 19bc
000000e0: 38f2 3e3c 1328 1c3d 5808 073c 000b 9c3a
000000f0: 33ca adbc 4e18 c03c 4087 a93a a73b 173d
00000100: 27e7 303d 5796 283d d03a 70bb 00e3 f5bb
00000110: f4eb 543c beb2 d73c 033f 32bd 2748 bdbc
00000120: c21e d13c d742 3d3d c05d debb 8b99 12bd
00000130: 8287 aa3c d97d 2f3d 40de c23b 6a75 ccbc
00000140: 69d5 1a3d 37a6 b7bc 8388 ddbc f24e cc3c
00000150: 8077 2a3c 6c10 7dbc fe4f 10bd 4cc9 383c
00000160: d937 0b3d 30b9 8dbc 067e aa3c e0b4 1bbb
00000170: d034 45bd 11ae 433d 8037 26bb 28b1 28bc
00000180: 40b7 0bba c231 22bd 8327 44bd a34e b6bc
00000190: a264 bd3c 2ab2 c13c 55c2 043d aa46 a7bc
000001a0: 973f eabc 2383 e6bc 51e4 0b3d c6fa bd3c
000001b0: 9850 ac3b abd0 29bd 913e 4b3d 5c5f 633c
000001c0: 9dfa f0bc c8fb 0bbc 66d7 f83c 8f26 1e3d
000001d0: 059c 133d 728d b63c c023 7fbc 7f7d 473d
000001e0: cbc4 363d 98a4 093c be52 aa3c 4505 1fbd
000001f0: 22c8 32bd 58a0 303c 2dc8 0d3d ec08 4d3c
00000200: 1aaa aa3c 80a6 b639 347f 76bc 46f6 29bd
00000210: 7691 983c f344 393d 2845 263c 352b 09bd
00000220: 39c3 103d b14f 273d 569b d63c 00ab c7bb
00000230: 955c 203d e81b afbb c6b8 ea3c ad3e e8bc
00000240: 58fc 0e3c d4b9 5c3c 5d83 15bd d272 e33c
00000250: fef0 ea3c 4138 253d 2a71 17bd 153d 05bd
00000260: 04b0 4f3c c35b f8bc 3e8e af3c e3ea 473d
00000270: 402b b33a 24ed 773c 8c95 09bd 3d85 f9bc
00000280: 3a4a 11bd a04d 96ba a68c 10bd 6ee8 ec3c
00000290: 0ca7 1d3c 072c 253d 630a 1a3d 763f 903c
000002a0: bb6f 35bd 0de0 423d 3087 293b 78be 7bbc
000002b0: 08b0 413c 798b 2d3d b53a 303d 6042 473c
000002c0: a828 47bc eab8 02bd 80bd 043b 21f7 203d
000002d0: 42ec 983c 5517 29bd c0b5 023c 6048 12bc
000002e0: 2e8c ea3c 4e3c ce3c a8e4 62bc 501f 8cbb
000002f0: ea91 c23c 80be 8d39 4c80 0fbc 05c0 4bbd
00000300: 7d51 cdbc 4bfd 4a3d 5283 db3c 4f9c 2e3d
00000310: a243 d93c 006c d0ba 3a83 893c 09b2 063d
00000320: c07b ec3a 2d9f 1d3d 7beb 373d e2bd a13c
00000330: ea5f a1bc be3a b93c 65ed 3d3d f136 073d
00000340: 3001 d2bc 9544 18bd a19a 063d cce3 27bc
00000350: 0891 4c3c 5abc 983c 4d65 eebc 4f9f 4a3d
00000360: 38e6 033c 971c debc 5479 96bc c1f8 273d
00000370: a0d4 02bd 94c0 503c a65f ec3c b082 f6bb
00000380: 707f eebc 326b fe3c cc19 7d3c 66b0 21bd
00000390: 94de 51bc 9d6c 9fbc 2d54 08bd 446a 653c
000003a0: 1e92 b53c 5ddb 05bd 22bc a23c 7770 a8bc
000003b0: fd98 3abd 3a3b a2bc e7b8 413d f3ca b5bc
000003c0: 8a02 adbc f2fe 943c 6088 f3ba c8d5 07bc
000003d0: 0a47 df3c 2b0b 31bd ac93 58bc c0cd f2bc
000003e0: d0bf c13b c630 8bbc 86d0 df3c 8164 3f3d
000003f0: 57d8 413d 7a39 c4bc edcc 0fbd ec6d 6e3c
0.043038037 0.048210863 0.0052898414 0.032563332 -0.017002005 -0.0065111294 -0.023143096 0.009477805
-0.028401155 0.006396912 -0.015500627 0.005828511 -0.046004284 -0.04602809 -0.04370454 0.012076743
-0.048819978 -0.035294347 -0.0040746555 -0.045187104 0.013205174 0.044978697 0.0093813315 0.031877372
0.043993775 -0.008041006 -0.01113233 0.034009088 0.015831891 -0.04243976 0.017473761 -0.016735572
-0.025827581 0.004848093 -0.044854134 -0.026660264 0.0054249577 -0.032599054 -0.0099318735 -0.046127792
-0.013860531 0.019842532 0.0046500377 -0.03976189 0.027632784 0.02468795 0.045475554 0.02163491
0.03796536 -0.00063306093 0.0033224225 0.046891015 -0.025650566 0.016452502 0.00047528744 -0.009379111
0.011654429 0.038124155 0.008241735 0.0011905134 -0.02121458 0.02344909 0.0012933984 0.036922123
0.043189194 0.041159 -0.0036656149 -0.007503867 0.012995709 0.026330348 -0.043517124 -0.023105694
0.025527362 0.04620632 -0.006786078 -0.03579096 0.020816568 0.042844627 0.0059469044 -0.024958331
0.03780118 -0.022418125 -0.027042633 0.024939988 0.010404468 -0.01544581 -0.035232536 0.011278462
0.033988807 -0.017300218 0.020812046 -0.0023758933 -0.04814607 0.047773425 -0.002536267 -0.010296144
-0.00053297356 -0.039598234 -0.047889244 -0.022254294 0.023119275 0.023644526 0.032411892 -0.020419437
-0.028594775 -0.028138703 0.034153286 0.023190867 0.005258631 -0.041458767 0.049620215 0.013877716
-0.029416377 -0.008543916 0.030376147 0.03861099 0.036037464 0.022284243 -0.015572488 0.048703667
0.04462127 0.008401059 0.020791408 -0.038823385 -0.043647893 0.010780416 0.03461473 0.012514334
0.020833064 0.00034837797 -0.015044976 -0.04149463 0.018624049 0.04523177 0.010148324 -0.03348847
0.03534243 0.040847484 0.026197117 -0.006093383 0.039150793 -0.005343903 0.02865256 -0.028350199
0.008727156 0.013472039 -0.03650223 0.027764712 0.028679367 0.04033685 -0.036973156 -0.032528955
0.012676243 -0.030317193 0.021430131 0.04880799 0.0013669506 0.015132222 -0.033589885 -0.03045904
-0.03547118 -0.0011467226 -0.035290383 0.028919425 0.009622347 0.04032519 0.03760756 0.017608386
-0.044296008 0.047576953 0.0025867932 -0.0153652355 0.011821754 0.04236934 0.043024737 0.012161821
-0.012155689 -0.03191463 0.0020254552 0.03929818 0.018667344 -0.041282017 0.007977903 -0.008928388
0.028631296 0.02517524 -0.013848461 -0.0042761937 0.023751218 0.0002703555 -0.008758616 -0.04974367
-0.02506327 0.049557965 0.026796017 0.042629536 0.026521508 -0.0015901327 0.016786207 0.03288463
0.0018042251 0.03848188 0.044902306 0.019743863 -0.019699056 0.022611018 0.046368975 0.03301138
-0.025635332 -0.03717478 0.03286231 -0.010247182 0.01248575 0.0186445 -0.029101038 0.049468335
0.008050494 -0.027113242 -0.0183684 0.041008715 -0.031941056 0.012741227 0.028854202 -0.0075229034
-0.029113501 0.031056974 0.015448045 -0.039474867 -0.012809414 -0.01946097 -0.0332834 0.0140023865
0.0221644 -0.032679904 0.0198651 -0.02056144 -0.045556057 -0.019803632 0.047295477 -0.0221915
-0.021119375 0.018187974 -0.0018580072 -0.0082907155 0.027255554 -0.04322354 -0.0132188015 -0.029639125
0.0059127584 -0.01699103 0.027321111 0.046726707 0.04732546 -0.023953188 -0.03510754 0.014552575

conv1_desnet.conv_r.weight f4 [12, 1, 3, 3]
00000000: df62 073d 205f 4f3e 8888 053e e831 4dbe
00000010: 1a98 86be 9deb d0bd 0c27 8f3e ddbf c1bc
00000020: 51d0 77bd 7b6c 68be dccc 8d3e 53fa 15be
00000030: 06ce 113e deaf abbd 41ac 2bbe 051e 8a3d
00000040: 342d 8a3e 12ae 1dbe 73bf 0abe 6023 00be
00000050: 4185 c73d a94e 153e ab13 a43e 7080 1dbe
00000060: 1060 48bd c7da 773e 6063 a3be 5c12 5b3e
00000070: 71e4 87be a992 d9be 533a 4f3e ec0c 043e
00000080: b1d2 3b3e 4604 65be 44d3 8d3e 5136 c0bd
00000090: a8ad 813d 1692 e83d ebce f6bb 17de 05be
000000a0: 247c c4bd 0766 8c3e 0988 cd3d e995 1fbe
000000b0: b4f2 2fbe 0625 17be 954a 45be 3137 aebd
000000c0: dda9 703b 24c3 26be fd6c 233d a360 0a3e
000000d0: 55f2 993e da27 cb3d a58d 513a 82e6 243c
000000e0: df26 193e 384e 143e 9cd2 9dbd 5c72 4dbe
000000f0: 75d5 6a3e 07a1 26be c60a f7bd 4b08 6c3e
00000100: d0d6 47be 1184 c63b 6f8f 973e 0587 413d
00000110: b93f 263e e4b9 a0be b77f f4bd fe66 c83d
00000120: 2cec 54be 6d6c 473e b53e 80be 6ab1 48be
00000130: c02f 78be 49b9 553e fb81 f33d 462b 2d3e
00000140: b077 2bbd a06f 953e 2e2a 2cbc 65b8 223e
00000150: cd68 1fbd 2856 cfbd c691 9cbe f4cd 89bd
00000160: 2877 143e de68 98bd 90f2 673e 4c55 bf3d
00000170: 2767 883e 24fa 2fbd a5ef 27bd 1926 61be
00000180: cec2 85be ada6 a3be 2c1d 953e 99f9 6abe
00000190: e10d 453b 4c90 abbd 5439 c2bd 304d ff3c
000001a0: d236 5b3e 4f59 a8bd ff5d 28be 03be d13e
0.033053275 0.20251131 0.13040364 -0.20038569 -0.2628792 -0.1020119 0.27959478 -0.023651058
-0.0605014 -0.22697632 0.27695358 -0.14646272 0.14238748 -0.083831534 -0.16764928 0.06744007
0.26987612 -0.15398434 -0.13549595 -0.12513494 0.09742213 0.14580788 0.32046255 -0.15381026
-0.048919737 0.2420455 -0.31911755 0.21393722 -0.26541474 -0.42494705 0.20237093 0.12895554
0.18342091 -0.22364911 0.27700245 -0.0938536 0.063319504 0.11355989 -0.0075319908 -0.13073002
-0.095939904 0.2742159 0.10035712 -0.1558453 -0.17182428 -0.14760217 -0.19266732 -0.08506621
0.003672234 -0.16285378 0.03989886 0.13513426 0.30067697 0.099197105 0.0007993824 0.010064723
0.14956234 0.14482963 -0.07706186 -0.20063156 0.2293299 -0.16272365 -0.12062602 0.23050039
-0.19515538 0.006058224 0.2960162 0.047247905 0.16235246 -0.31391823 -0.11938422 0.09785269
-0.20793217 0.19474955 -0.25047842 -0.19598928 -0.24236965 0.20871462 0.11890026 0.16911039
-0.04186219 0.29186726 -0.010508103 0.15890653 -0.038918305 -0.10123855 -0.30579966 -0.067287356
0.1449858 -0.07441877 0.22651124 0.09342441 0.266412 -0.042963162 -0.041000027 -0.2198719
-0.26125187 -0.319631 0.2912382 -0.22946776 0.0030068087 -0.08377132 -0.09483591 0.031164736
0.21407631 -0.08220159 -0.16442107 0.4096528

conv1_desnet.conv_i.weight f4 [12, 1, 3, 3]
00000000: ab46 13be 55bd d1bd 13c8 96be 0c09 c53d
00000010: e292 ae3e 388d 543e a48e a2be 1200 753d
00000020: 9cec 1f3e 1431 f5bd f8ac 9a3e 83d6 e5bd
00000030: 5f98 9f3e 99b3 73be c98b dcbd 5d2a 3ebe
00000040: 39fe 80be 63e3 ba3e 4b21 7bbb 3e76 cabe
00000050: 8002 51be 55fa 543e c587 5c3e 52e9 893e
00000060: 53aa a33e 402a 78be 2608 22be 0b62 45be
00000070: 8e62 9c3e e158 75be 76cc 8d3e e6ec 483e
00000080: d9f5 543e 3a89 18be 7d6c a6bd 37bb 9abe
00000090: ba94 1a3d cc49 c53d 332a 853e 7621 bd3d
000000a0: 7571 013d 16d2 133e 9549 9bbe 2c8c 4dbe
000000b0: 8921 2dbe b667 60be fbd2 9bbd 3c93 06be
000000c0: e112 1c3e ea9a 6abe 2de2 debc cd75 a03d
000000d0: 9c98 953d 60d9 c03e 5259 c33d cc54 acbc
000000e0: 9d68 09be 1c91 51be da3b 3dbe c15f 69be
000000f0: 1835 8e3e 516a bb3e f8e8 003d 713d 173d
00000100: 9697 29bc 06df 37be 07e3 053d d0a5 3bbe
00000110: 2774 38bc 541b 3f3e ec0c 7ebe a250 07be
00000120: 3e2e 4c3e 332c a3bb 33bd 853e 2bbf fdbd
00000130: 0952 6fbd 0507 69bd 747d 6e3e 4809 ec3d
00000140: 860b 89bc cdf1 d1be 2471 25be 4d9c 793e
00000150: 3116 8abd 651b a8bd fac6 913d 7faf 143e
00000160: 308b 383e 9343 a63d 262c 933d 52ad 8dbe
00000170: 3d7c dd3d 234f 833b 6f04 9bbd 21ab bd3b
00000180: bb03 b23d d18d d8bd 85fe 2d3e b34e 833e
00000190: 6180 76be 5c14 ac3e b478 6cbb 2752 863c
000001a0: 8c91 85be 52f9 bbbe a76a 973d ebad 413e
-0.14382426 -0.1024119 -0.2944952 0.09620866 0.34096438 0.20756996 -0.3174945 0.05981452
0.15617603 -0.119722515 0.3021009 -0.112225555 0.31170937 -0.2379898 -0.107688494 -0.18570848
-0.25193956 0.36501607 -0.0038319405 -0.39543337 -0.2041111 0.20798619 0.21536167 0.26935822
0.31965885 -0.24234867 -0.15823421 -0.19275682 0.3054394 -0.23959686 0.27695054 0.1962162
0.20796908 -0.14896098 -0.08126161 -0.3022096 0.037739493 0.09633216 0.26008758 0.09234898
0.03160234 0.1443561 -0.30329576 -0.20073003 -0.16907324 -0.21914563 -0.07608601 -0.13142103
0.15241577 -0.22910658 -0.027207458 0.07834969 0.073044986 0.37665844 0.09538521 -0.021036528
-0.13418813 -0.20465511 -0.18479863 -0.22790433 0.27774882 0.3660455 0.031472176 0.03692383
-0.010351082 -0.1795617 0.032687213 -0.18324971 -0.011258162 0.18662769 -0.24809617 -0.13214353
0.19939515 -0.004979634 0.2612091 -0.12389978 -0.058427844 -0.05689146 0.23290044 0.11525208
-0.016729128 -0.41004792 -0.16156441 0.2437603 -0.06742514 -0.0820835 0.0711803 0.14520071
0.18021846 0.081183575 0.07186155 -0.27671295 0.10814712 0.0040072366 -0.07569205 0.0057882224
0.08692118 -0.10573924 0.16991623 0.2564598 -0.2407241 0.33609283 -0.0036082687 0.016396595
-0.26087606 -0.36713654 0.07393389 0.18914
