ModelZoo/models/my_model/SRCNNpara_1218_rx_1sir_5_complex_channelnet.pth (torch_old, 30480 bytes, 10 tensors)

conv1.conv_r.weight f4 [32, 1, 9, 9]
00000000: 5afe 5c3d 4c09 76bd 08ed 513d 0fa2 5f3d
00000010: feb7 34bd 116c 7fbd a603 af3d c265 36bd
00000020: 62c7 62bc 1a82 52bc b013 0e3b f7fb 8bbd
00000030: d4bb 9d3a f99c 823d b689 40bd d150 57bd
00000040: 9992 ae3c ce61 7bbd 7cca 90bc c062 38bd
00000050: 29da 613d bc0e 21bb 766b 733d ced1 483d
00000060: f5f1 21bd 0863 bcbd 4bf4 ed3c 0874 433d
00000070: efdb e43c 89e2 f83d 4d70 26bd d532 9cbd
00000080: 9f4a bbbd 0a29 083e fce5 cd3d eef5 e0bc
00000090: 4efe 0abc abca 403c c686 b6bd 1b53 99bc
000000a0: 86f0 17bd 4b52 853b 2a4c 8dbd e5d6 833c
000000b0: 0852 cbbb bf2f 4ebd 597b 0a3d 3570 36bc
000000c0: 58e7 48bd ffd1 9e3d a81a cabc 1c15 17bd
000000d0: 6d18 02bd 862d 1c3d fd6d c13c 7ce3 95bd
000000e0: cd18 2b3d 68c5 cb3d f4cd 92bd 5b45 013e
000000f0: aa9a 9bbd 5edf a63d a2e5 103d e69b 8fbd
00000100: b50d a43d e4f4 7eba 2c86 57bd 8b3e 283d
00000110: dd8c 9c3d 23c2 a03d 58e6 5ebd d0c5 34bc
00000120: 5f12 0d3d 34df 8d3b 70c5 acbb f7f8 20bc
00000130: 9df5 aebd e0ad 0cbd 4b4a adbc 7acf 883d
00000140: a5cc 0dbd 4d40 c43c fb26 503d eaec 79bd
00000150: 6f3c 953d befc 2f3d b25d c3bc ddab d4bc
00000160: 6094 313d 73c8 803d 1965 c4bc 7483 a2bd
00000170: d24d 9bbd 5df2 433d 6063 adbc 12fa 513d
00000180: a6f2 08bd 9178 1ebd 4606 e4bc 24d7 9c3b
00000190: fd2d 58bc 17d7 103c 3332 d93b e506 0bbb
000001a0: 8d38 a93c b224 9abd 65f1 aa3d 6855 943d
000001b0: d1d7 993c 80bf 153c f965 643d 1141 43bd
000001c0: df41 673d 3ca4 1cbd 9150 7a3d 0692 27bd
000001d0: 9a34 b03c 58e5 a03b 72fc 3b3d 3d3a a33d
000001e0: 411e ed3c fac4 13bd 093a 8dbd bf41 cb3d
000001f0: 4809 e0bc 4b01 53bd 013b 04bd 67c2 c5bd
00000200: a644 103d 78d4 22bd 6a21 5bbd 4274 773d
00000210: c985 6bbd fa0d 833b 6553 f43c ea18 fb3c
00000220: 58b7 953a 04e6 c1bd e47d 0c3d 2c59 333d
00000230: cdd4 ecbc 2746 31bd e689 15bd 0069 0f3d
00000240: 3550 5cbd 434d 753d 5775 9dbb 22d8 93bd
00000250: a143 b03c 0101 a23c e701 943d 3ffc cabd
00000260: 353e 3ebd 6161 453d 7ff1 bfbb 899a 95bc
00000270: 3ef3 843d cbdc fa3b 975e 2abd ddcc 373d
00000280: dd9d b3bd 09a7 8d3d e6a8 ccbd c496 66bd
00000290: e69e e93c f090 37bd 7396 293d 8afb 7d3c
000002a0: 042f aebc 3513 c2bc 63cd 15be 3194 973d
000002b0: 5aa3 133d 4484 353d b6c7 58bd f29d 97bd
000002c0: f96f 8e3d 467b 993c d8aa cc3b e9b5 d93d
000002d0: dac6 d2bc 2f9d 5f3d 7814 32bd 3f50 d53d
000002e0: de4f 84bc 237f 51bd 086a 5c3a a523 333d
000002f0: be57 363c a60d af3d 9a7f 32bc f0b4 893c
00000300: 94b7 383d dc31 5a3d 673d 883d 1fc0 c0bd
00000310: 890a 7cbd d258 44bc 3330 a83b a308 30bd
00000320: d8e7 a8bd 143c 5bbd 46b6 ac3d b280 f1bd
00000330: 8ba5 c33d 9ed4 363d 8c07 14bb cab1 3abd
00000340: fb0d a43b d3e3 ee39 12dc 403d 2bb2 cc3c
00000350: da35 ae3d 7e3a 74bc 3244 e63c 5fd4 ac3c
00000360: 7cc9 b6bd fcc9 b53c 2d12 193d b411 d1bc
00000370: 5c38 82bd 643f 063d 5e36 9abc 457f 51bd
00000380: 9551 1dbd e588 933d 3932 aa3c 6b87 d3bc
00000390: e6b4 47bd 0501 59bd a309 a43d 12c8 403b
000003a0: aefc 5f3d f5d9 70bd eb72 033c 4e05 8abc
000003b0: ecfb f83c 756d d83c 33de e03c 3596 c9bd
000003c0: 0f49 c5bc e7c8 41bd f62b 763d 4be9 ff3c
000003d0: fe37 0dbd 1b30 2dbd 2eeb 0b3e b7a3 13be
000003e0: 3268 34ba e116 1a3d 2c68 07bd 99fe 73be
000003f0: 3abb 2ebd e499 14bc 5352 ab3d a9ae b2bd
0.053953506 -0.06006746 0.05125144 0.05459791 -0.04412078 -0.06235892 0.08545618 -0.044530638
-0.013841482 -0.012848401 0.0021679215 -0.06835168 0.0012034127 0.063775964 -0.04700633 -0.052567307
0.021310138 -0.06137257 -0.017674677 -0.04501605 0.055139694 -0.0024575433 0.059428655 0.04902821
-0.03953739 -0.09198576 0.029047152 0.047718078 0.027936904 0.12152583 -0.040634442 -0.07626883
-0.09145092 0.13296905 0.10053632 -0.027461018 -0.0084834825 0.01176707 -0.08912425 -0.018716386
-0.037094615 0.004068648 -0.06899293 0.01609368 -0.0062048472 -0.050338503 0.03380904 -0.011135151
-0.04904875 0.07754897 -0.024670914 -0.036885366 -0.031761575 0.038129352 0.023612017 -0.0731878
0.0417717 0.09949762 -0.07168189 0.12624113 -0.07597859 0.08148073 0.035375245 -0.07012157
0.08010427 -0.00097258226 -0.05261819 0.04107527 0.07644055 0.07849529 -0.05441889 -0.01103349
0.03444135 0.0043295864 -0.00527256 -0.009824983 -0.08542941 -0.034345508 -0.02115359 0.06680198
-0.034618992 0.023956442 0.050818425 -0.061016954 0.072869174 0.042965643 -0.023848388 -0.025960857
0.043354392 0.06288233 -0.023973988 -0.07935229 -0.075832024 0.047838558 -0.02116555 0.051263876
-0.033434533 -0.0386892 -0.027835023 0.004786389 -0.013194558 0.008840344 0.0066282987 -0.0021213826
0.020656848 -0.0752653 0.083468236 0.072428524 0.018779667 0.009139895 0.05576131 -0.047669474
0.056459304 -0.038242564 0.06111199 -0.040910743 0.021509457 0.0049101524 0.045895047 0.079700924
0.02894509 -0.036076523 -0.06895835 0.099246494 -0.027348176 -0.051514905 -0.032282833 -0.0965622
0.03522172 -0.039753407 -0.053498663 0.060413606 -0.057500634 0.003999469 0.029824922 0.030651528
0.0011422439 -0.094677 0.034299746 0.043786213 -0.028910065 -0.043279793 -0.036508463 0.035012245
-0.05378743 0.059888136 -0.0048052478 -0.072189584 0.021516623 0.01977587 0.07226925 -0.099113934
-0.046446044 0.04818857 -0.005857646 -0.018262165 0.06491707 0.007655715 -0.041594114 0.044873107
-0.087703444 0.06916625 -0.09993152 -0.056296125 0.028518151 -0.044815958 0.041403245 0.015501866
-0.021262653 -0.0236908 -0.1462913 0.07401312 0.036044456 0.04431559 -0.052924834 -0.074031726
0.06954951 0.01873554 0.006245952 0.106304 -0.025729585 0.05459326 -0.04347655 0.10415696
-0.016151365 -0.051146638 0.0008408134 0.043735165 0.011129318 0.08547525 -0.01089468 0.01680991
0.04509695 0.053270206 0.066523366 -0.09411644 -0.061533485 -0.011984067 0.005132699 -0.042976987
-0.08247346 -0.05352409 0.084332034 -0.11792125 0.09553059 0.04463636 -0.0022587506 -0.04557971
0.0050065494 0.0004556464 0.047084875 0.0249873 0.08506365 -0.014906524 0.02810869 0.02109736
-0.08925149 0.02219104 0.03737085 -0.025521137 -0.06358406 0.032775298 -0.018824752 -0.051146764
-0.03840788 0.07203845 0.020775901 -0.025821408 -0.048756503 -0.052979488 0.080096506 0.0029416126
0.054684334 -0.05880161 0.008023004 -0.016848233 0.030393563 0.02641938 0.027449703 -0.09843103
-0.024082689 -0.047310736 0.06010052 0.031239172 -0.034477226 -0.042282205 0.13663933 -0.14417921
-0.00068819814 0.037619475 -0.03305833 -0.2382759 -0.042659022 -0.0090698935 0.083653115 -0.0872472

conv1.conv_r.bias f4 [32]
00000000: 143c b4bd 8a24 2abe b271 7aba b132 693e
00000010: e8a1 d03e 7c96 b73d 6496 d9bc 472b b13e
00000020: 50f4 4a3c c27f 113d 5f79 c7bd 1d3c f6bd
00000030: 8d64 b53d b07f 99bc 09bb 1d3d 64e5 e5bd
00000040: ed6e 043c f76d 943e 763a 103d f283 1fbc
00000050: 6ba8 b43c 577f c23c 089e 43bc 2a1d 913e
00000060: 2444 ff3d bbfe 633d e45a 03bd 45ac 84bd
00000070: 93d6 c9bd 5ecf cc3d 27e2 643d 94f9 8cbd
-0.088005215 -0.16615501 -0.0009553685 0.22773243 0.40748525 0.089642495 -0.02656097 0.3460333
0.01238735 0.03552223 -0.097399466 -0.120231844 0.08857069 -0.018737644 0.03850845 -0.112253934
0.008083087 0.28990147 0.035212003 -0.009736048 0.022052964 0.023742361 -0.011939533 0.28342563
0.12464169 0.05566285 -0.032069102 -0.0647817 -0.0985538 0.1000049 0.05587974 -0.06883541

conv1.conv_i.weight f4 [32, 1, 9, 9]
00000000: dd50 923e d179 3d3d 2919 89bd d888 b83d
00000010: 3a3d 01be 6f86 4ebe 4a55 9fbd 4c7c 9abe
00000020: 76ff edbd 636d f93d 70fd 543d 114e 81bd
00000030: 40b6 923d 4176 f03c 0802 09be e482 2ebe
00000040: e86e a7bd 8d47 653c a0c0 cf3d 487c 95bd
00000050: 0a52 d83c a9da d23d a8a2 6abd 0fe1 2abe
00000060: 7273 83bb 1b5d 113c 6e85 073e c7c6 b0bd
00000070: 04ca ebbd 1700 eabd d43f 7cbd 9b3c eb3d
00000080: 9fe4 bbbb c080 953d b8d2 71bc 889e f4bc
00000090: 4774 d7bc 9427 75bd aff6 133d 6572 e63d
000000a0: 6dc1 0d3e a590 dc3c 914d 973c 0414 55bd
000000b0: dbe4 2f3e 58d5 a93d 1dd1 153d 9f19 ebbd
000000c0: b53c 183e e2d4 383e 8993 2a3e 51c3 403e
000000d0: 3872 263c fb5a 883e a1e9 2c3e 5c18 d7bd
000000e0: f26a 803a b4a9 fcbb f91c 94bc 5481 76bd
000000f0: 187b 8abd 6b8f 24be 1578 0e3e e66c d73d
00000100: 364d 2cbc 68f5 a8bc 5020 473c e5ff 20be
00000110: 34f7 93bd bc30 19be 0f03 06bb be44 7f3d
00000120: dbe4 053d bb05 493d 1619 b1bd 40b5 c8bc
00000130: c691 d53d d434 013e c39d 0ebd 33a1 af3d
00000140: 55f5 76bc 7fe1 62bc 3be9 6abd b8fb 043c
00000150: d43c 0b3d 7f61 273e ecee 073d dc8f 62bb
00000160: 79e7 40bc 7d8f 203e 61fc e33c c550 d8bd
00000170: 2804 193d 9adc 8abc 85b2 953d ef50 fb3c
00000180: fe17 a03c aed1 043d 161c 173e 12f3 64bc
00000190: 578b 65bd 611c a03c bfae fe3c 26c3 15be
000001a0: f72b 1f3d 4dd6 b8bd 3b2f f33c 5d79 5ebd
000001b0: e927 263d 1187 a13d dd75 bf3c c468 0abe
000001c0: fa95 52bb 1173 413c 35f9 06bb b02e ba3c
000001d0: 73b8 e23b 9bbe 813d eb04 183d c989 593d
000001e0: 92c1 0dbd 6ac4 c1bc 9d16 18be 7a2d 7bbc
000001f0: c6e9 903b 6752 91bd bf24 c6bc 29bf 6d3d
00000200: 4557 0fbb b9f4 83bd 98e3 b03b 7841 143d
00000210: ebec 6dbb c823 8dbd 0256 0fbe 51cb ddbd
00000220: 30f7 17bc ecb8 c63c 0704 59bc e8b1 f43d
00000230: 975d a13b 5111 873d 909e b4bd 33fd 3abe
00000240: f2b6 b7bd 5f40 fdbd 0f12 fb3c bbd9 4c3d
00000250: 8003 fc3d 1dd7 9b3d 6a00 8d3d 8a15 82bd
00000260: 284f 83be 8b42 b7be 5e7a cfbc 7abe 3d3d
00000270: 0b3c 103c e218 d13d a688 9d3d e66b d03c
00000280: ebbe ccbd c220 8cbe 39f5 283e 570c 6f3d
00000290: 6cbd babb 4ab9 0bbc e41b b73e 59c0 ff3d
000002a0: 10b8 313d f288 22bd 2b55 d23d 4686 9e3d
000002b0: 1f7a f9bc 8c4a b5bd 1069 ab3d 337d 1e3d
000002c0: ad65 d93d b2f2 08bd c2f5 19bd cc5e 81bc
000002d0: 1656 2cbc 56d2 fabb 1d2d 9abd f9ad 8abd
000002e0: 716f 2bbe 2b88 7dbd 26c8 633d 7262 a1bc
000002f0: c429 8c3b 1c00 81bd 1d34 a73c 6474 ff3d
00000300: 7e3a 633d 8ed1 38be 6201 5cbe b6ae ec3c
00000310: 5a43 a6b9 b16e e0ba 24e3 aabd fbb6 8fbc
00000320: 5d00 2ebd 9d48 fdbd f073 9cbe 4c8d 56be
00000330: 80db 67bd 6794 d03d 6191 9ebc 5979 e2bb
00000340: 19b6 bb39 0373 073e 3f3a cd3c 6284 72be
00000350: d307 0bbe 193e 4dbd 0496 8d3d 35a9 d93d
00000360: 38cf 623e f8a4 383e 5e33 0f3e 408d 083e
00000370: 96e5 c53d 17e3 143e 4943 7e3d 8e0d 483e
00000380: 3dc9 b53e 8f01 703e 9828 b8bc 3130 25bd
00000390: 8df5 7e3c 4caa 8d3d 9d0a 3a3d 0c24 f93d
000003a0: 733e a03c f03e d53d 0c4c 30be d4ef d1bd
000003b0: 12d5 01be 6b4e 9cbd bfe9 8dbd 6852 223d
000003c0: 8fa0 3cbe afb1 15be 3c81 eabd 72fc 393d
000003d0: 0311 153e 6931 42be 1249 a5bc 82ca 343e
000003e0: 6d33 3e3c 53c5 05bd e33d 823d e6aa c53d
000003f0: f8bb 29bd 317b 483b e6b1 23bc 1a40 35bd
0.2857732 0.04625875 -0.06694252 0.09010476 -0.12621012 -0.2016847 -0.077799395 -0.30172956
-0.11620991 0.12179067 0.05199951 -0.06313718 0.07163668 0.029353263 -0.13379681 -0.17042118
-0.081754506 0.01399411 0.10144162 -0.072990954 0.026406307 0.10295612 -0.057284027 -0.16687416
-0.004011565 0.008872296 0.13234493 -0.08631664 -0.11513141 -0.114257984 -0.06158431 0.11486169
-0.005734041 0.07299948 -0.014759712 -0.02986075 -0.026300563 -0.059852198 0.036123928 0.11252288
0.13843317 0.02692444 0.018469604 -0.05202104 0.17177145 0.08292645 0.03657638 -0.11479496
0.14866908 0.18049958 0.16657843 0.18824507 0.010159068 0.26631913 0.16885997 -0.10502693
0.0009797497 -0.00771066 -0.018080221 -0.06018193 -0.067617595 -0.16070335 0.13912995 0.105188176
-0.010516455 -0.020624831 0.0121537 -0.15722616 -0.07224885 -0.14959997 -0.00204486 0.062321417
0.032688957 0.04907773 -0.08647363 -0.02450049 0.10428195 0.12617809 -0.034818422 0.08575668
-0.01507314 -0.013847708 -0.057351332 0.008116655 0.033993557 0.16345786 0.033186838 -0.003457061
-0.011773937 0.15679736 0.027830305 -0.105622806 0.03735748 -0.016950894 0.073094405 0.03067824
0.01954269 0.03242653 0.14756808 -0.013973968 -0.056041088 0.019544782 0.031089185 -0.14625224
0.038860288 -0.0902525 0.029685607 -0.05431496 0.040565405 0.0788709 0.023371631 -0.13516527
-0.003213285 0.011807219 -0.0020595316 0.02272734 0.0069189607 0.06335183 0.037114065 0.053109918
-0.03460843 -0.023653228 -0.14852376 -0.015330667 0.004422399 -0.07095795 -0.024187444 0.058043633
-0.0021872085 -0.064431615 0.005398225 0.03619525 -0.0036304544 -0.0689159 -0.13997653 -0.10829795
-0.009275243 0.0242581 -0.013245589 0.119479954 0.004924487 0.065951 -0.08819306 -0.1826065
-0.08970441 -0.123657934 0.03064826 0.05001233 0.12305355 0.07609389 0.068848446 -0.063517645
-0.2564633 -0.35792956 -0.025326904 0.04632423 0.008803378 0.10209824 0.07692079 0.025442075
-0.09997352 -0.27368742 0.16499795 0.058361378 -0.0056988504 -0.008528063 0.35763466 0.12487859
0.043388426 -0.039681382 0.10270151 0.077404544 -0.03045374 -0.08852109 0.083696485 0.038693618
0.10615096 -0.033434577 -0.03758789 -0.015792273 -0.010518571 -0.0076544685 -0.07528136 -0.06771464
-0.1674173 -0.061897438 0.0556108 -0.019700263 0.00427744 -0.06298849 0.020410592 0.124733716
0.055475704 -0.18048689 -0.21484903 0.028891902 -0.00031712168 -0.0017122832 -0.08344105 -0.017543307
-0.042480815 -0.123673655 -0.30557203 -0.20952338 -0.056605816 0.101845555 -0.019356431 -0.0069114384
0.00035803093 0.13227467 0.025052188 -0.23683313 -0.13577203 -0.05010805 0.06913379 0.10627977
0.2214936 0.1803168 0.13984439 0.13335133 0.09662931 0.14539753 0.062075887 0.1953642
0.35505095 0.23438095 -0.022480294 -0.040329162 0.015561474 0.06917247 0.045420278 0.121650785
0.019561028 0.10412395 -0.1721651 -0.10250822 -0.12678936 -0.076321445 -0.06929349 0.03962937
-0.18420623 -0.14618562 -0.11450431 0.045406766 0.1455727 -0.18964161 -0.020176444 0.17655376
0.011608941 -0.032658886 0.0635946 0.09651737 -0.041439027 0.0030591006 -0.009991145 -0.044250585

conv1.conv_i.bias f4 [32]
00000000: 3aba 223b 56e3 973c 4e7e a0bb ec65 843b
00000010: 2eb0 1f3c f950 973a 42c2 20bc a43e 0bbd
00000020: 0568 b33b dc02 243c 5b84 1e3c 16ed 3b3c
00000030: 1a46 07bc 83b9 94b8 471e b23d 37b8 bc3b
00000040: 63fd c33c d686 6b3c 6ef9 643c fe8b 183d
00000050: da64 95bb c660 dbbb 5c6b 7cbc 7dcb 4dbc
00000060: e064 a93b acd8 60ba d759 e93b 85ec 4e3c
00000070: f2ee 733c 9b34 94bc 612b 07bc 6cd8 44bd
0.0024830238 0.01854102 -0.004897869 0.0040404703 0.009746594 0.0011544517 -0.00981194 -0.033995286
0.0054750466 0.010010447 0.009675111 0.0114701 -0.00825646 -7.091744e-05 0.08697181 0.005759265
0.023924535 0.014375409 0.013975484 0.037242882 -0.0045591416 -0.006694886 -0.015406456 -0.012560722
0.005169496 -0.00085772085 0.0071213054 0.012629633 0.014888512 -0.01809149 -0.008250088 -0.04805796

conv2.conv_r.weight f4 [16, 32, 1, 1]
00000000: 8bfe c93c 9510 0bbd 516b 8b3c 6022 6f3c
00000010: c703 a93d 80de d83d 0adf da3c 3025 af3c
00000020: 878f 973d 7281 373d 3c75 513c 31dc 053d
00000030: 9b88 94bd 2a18 283d 1f03 513d 7605 08bd
00000040: b5c4 c83d c734 b23c 9e7a 9b3d f13b 0b3e
00000050: 0b3e 6c3d 2e34 2bbc 5e37 4e3d ee50 5ebd
00000060: 3306 18bd a7e9 e83d c723 f6bc 4171 ca3d
00000070: 735b 9d3c 824c 923d e27e 373b 2e2b 383c
00000080: af81 d5bc 9640 49bd a60c a6ba e72a 0fbd
00000090: 92c6 2f3e 129f 03bd c8da 273e b2d2 e83d
000000a0: 75ce d2bc 5c39 88bc 4ec9 773c 6a89 abbc
000000b0: 0923 913d 073f 9bbb 98eb ca3b 27fd 27bd
000000c0: 0937 543c e001 e7bd a7b4 1abd efa3 c23d
000000d0: 8308 5bbc c0ca 3bbb 4acd b83d 1f94 3cbc
000000e0: dfa5 ce3c 6117 093c ce6e 12bd 7fc4 e63c
000000f0: 194a 86bd 5ede 033e 21ca d23d 4526 b03d
00000100: 2e4f c7bd 3f6c 773d 0edb fc3d 2f95 c8bc
00000110: f09f c2bc 337a b13d 1dd2 f33e c051 cb3c
00000120: 2c2e 06bd 575f 2c3e cf3b 4e3e d0a3 133e
00000130: 7f7f 9fbd bd0e 9bbe 6b08 913d 6cea 3ebe
00000140: ea5a babe 39ff 8bbd b61a 863e 3669 ee3d
00000150: 5a1a c93d 69f6 76be 9297 b33d abf4 38bb
00000160: cf8f 56be ce12 45bd 73b9 c13d 256e 3abe
00000170: e9ac 79bc 56ea 7bbd 541b da3d 586e c3bd
00000180: 80cb 7f3d 559b 333e 0a91 0abe 7ef1 8bbe
00000190: 5efc c33d fc39 f6bd 7171 83bd e084 9e3e
000001a0: 1b88 d83e c4d6 a7be 6420 3c3c 0b0f 3a3e
000001b0: a3e2 4bbe 18b3 213e f1df e1bc 7c47 41bd
000001c0: 1eb0 f0bc b6cf d83d cf5a 9a3e 45d7 86bd
000001d0: aa76 273e 5611 21be 38a3 45be e655 a3bb
000001e0: b3c8 093e 74d3 e8bc c669 4d3d 78ea f53d
000001f0: 144b 3cbd 4f65 4dbe ac39 bcbe bc71 00be
00000200: 3531 66bd 95e1 3ebd 7c23 0fbe 3e33 b5bd
00000210: e00d aebd 2dbf 8a3c 8d5b a03d d69f 0abe
00000220: cfcf fcbd cc90 3b3e 93f2 a43e 105f acbe
00000230: f034 443e 5603 a4bd 4b46 0fbd 33ed aebd
00000240: 12ce 893d b06b 9bbe 1a35 1e3e ffde c63d
00000250: efb8 bcbe 5815 6ebd 7fb2 42be 9aef 323e
00000260: ee94 25be f54d 9d3c 4c5e 323c 8e6b 01be
00000270: bea2 c4bd 8dd0 143e 96be 2fbc 59f2 193e
00000280: c050 013f 5cb4 5bbd f4f2 5fbe 27e8 48bd
00000290: e831 223d 94a2 503d da0c bc3c bf8f efbd
000002a0: 77c2 513c c9c7 1a3e 245e 1cbe d5f0 a8bc
000002b0: dd4e 0ebe 66b4 ffbd 974c 97bd a3c2 6ebe
000002c0: 06cb aebd 3904 063e 76ca 23be 8dcc c1bd
000002d0: e802 c13d b2b8 0dbe df44 103e 74b3 9b3c
000002e0: 173a 7b3c 1dc2 9f3d 7c67 303e 5a4e 783e
000002f0: 7071 50bc c6c8 2c3e 80a9 51bd 1880 fe3d
00000300: 8048 e8bd f0b1 41bd 0736 36be 8d7c d2bd
00000310: f70c b23d fd7f 433e 4b4e 34bb ebcd 07be
00000320: 49fe b13e 4a20 22bb fe47 2ebe 1a04 393f
00000330: 0b9f babd 24ed e53d bcf7 89bd 7b1c b5bd
00000340: 47e4 81bd 9b41 d8bc 3fc1 243e 1a4e 13be
00000350: d2ee 063e 6080 d9bd 89d8 0bbe 5542 253d
00000360: cfa9 68bc c9c5 8c3d 2d1a 253d 0858 8d3d
00000370: d7ef 8fbd 9800 973d 5870 343e c5d2 33bd
00000380: 4687 e63b 1b7f f9bd 5cab 993d 527e ae3d
00000390: 0fee a8bb 725b 063d 8b19 823e 4fe4 19be
000003a0: 236a 043e b2cf efbd 0115 323d 5534 8abd
000003b0: f7e4 483d 99e6 e73d 37e1 2abd 7a7f 96bc
000003c0: 2dfc c33d 24c1 4d3a 6f8f 563c 0f5b 0abe
000003d0: 4884 81bd 4464 113e c94a 6bbd 0429 6dbd
000003e0: a2e6 063d 2e71 0cbd b4df 86be d7d2 963d
000003f0: b162 1bbc b542 223d 5064 613d a592 8b3d
0.024657508 -0.03395136 0.017018946 0.014595598 0.082526736 0.105893135 0.026717681 0.021380037
0.074004225 0.044801183 0.0127842985 0.032680694 -0.07252618 0.04103867 0.051028367 -0.033208333
0.09803144 0.021753682 0.07591747 0.13597085 0.057676356 -0.010449452 0.05034577 -0.0542764
-0.037115287 0.11372691 -0.030046357 0.09884883 0.019208645 0.07143499 0.0027999212 0.011240764
-0.026062815 -0.04913386 -0.0012668564 -0.034953024 0.17165592 -0.032134123 0.16392052 0.11368312
-0.025733212 -0.016628914 0.015123678 -0.020939548 0.070867606 -0.004737738 0.0061926357 -0.04101291
0.0129525745 -0.112796545 -0.03776994 0.09503924 -0.013368729 -0.0028654784 0.09023531 -0.011509924
0.025225578 0.00836739 -0.035750203 0.028169869 -0.06557102 0.12877795 0.10292459 0.08601049
-0.09731899 0.060405966 0.12346469 -0.024485199 -0.023757905 0.08665886 0.4762124 0.024819255
-0.032758877 0.16833244 0.20140003 0.14417958 -0.0778799 -0.30284682 0.07081684 -0.18644112
-0.36397487 -0.06835789 0.26192254 0.11641161 0.09819479 -0.24117436 0.08769144 -0.0028222005
-0.20953296 -0.048113637 0.094592 -0.1820608 -0.015238979 -0.061502777 0.10649744 -0.09542531
0.062449932 0.17539723 -0.1353189 -0.2733268 0.095696196 -0.120227784 -0.064181216 0.3096075
0.4229134 -0.3278104 0.011482332 0.18169801 -0.19910674 0.15790975 -0.027572604 -0.047187313
-0.029380854 0.10586493 0.30147406 -0.06584028 0.1635386 -0.1572927 -0.19300544 -0.004984605
0.13455467 -0.028421141 0.0501497 0.12007612 -0.045970038 -0.20058177 -0.3676275 -0.12543386
-0.05619927 -0.04660185 -0.1397838 -0.08847664 -0.0849874 0.016936863 0.07829962 -0.13537535
-0.12344324 0.18316954 0.3221632 -0.33666277 0.19160819 -0.08008449 -0.034979146 -0.08541336
0.06728758 -0.30355597 0.15449944 0.09710502 -0.36859843 -0.058125824 -0.19013403 0.17474213
-0.16170093 0.019202212 0.01088674 -0.12638685 -0.09601353 0.14532681 -0.010726592 0.15033855
0.5051384 -0.0536388 -0.21870023 -0.049049523 0.039598376 0.050936297 0.022955347 -0.11697339
0.012802712 0.15115274 -0.15270287 -0.02062265 -0.13897271 -0.1248558 -0.07387655 -0.23316436
-0.085348174 0.13087548 -0.15995201 -0.09462843 0.094243824 -0.13839987 0.14088772 0.019006468
0.015333674 0.07800696 0.17226976 0.24248639 -0.012722358 0.16873464 -0.05118704 0.12426776
-0.11341953 -0.047288835 -0.17794047 -0.102776624 0.08693879 0.19091792 -0.0027512487 -0.13262145
0.34764317 -0.0024738484 -0.1701965 0.72271883 -0.09112366 0.112268716 -0.06736705 -0.08843323
-0.063423686 -0.02639847 0.16089343 -0.14385262 0.1317704 -0.10620189 -0.1365682 0.040346462
-0.014200642 0.06873662 0.040308166 0.06901556 -0.07028168 0.0737316 0.1762098 -0.043902177
0.007035169 -0.121824466 0.07503387 0.085201874 -0.005155332 0.032802053 0.25410113 -0.15028499
0.12931113 -0.117095366 0.043477062 -0.06748263 0.049046483 0.1132328 -0.041718688 -0.018371332
0.09569583 0.00078489096 0.013095721 -0.13511299 -0.06324059 0.14198405 -0.057444368 -0.057900444
0.032934792 -0.034287624 -0.26342547 0.07364433 -0.009483979 0.039614398 0.055027306 0.068150796

conv2.conv_r.bias f4 [16]
00000000: 8107 443d e58c 9fbd d052 ca3c 3b41 11be
00000010: 8f93 303e 9503 f53b 1e75 93bc 5672 0f3e
00000020: 436b 0abc 79b5 2b3d 34e2 4e3b cf89 893d
00000030: f35a afbd 349c 623e b939 aa3d b837 b0bd
0.04785872 -0.077905454 0.024697691 -0.1418504 0.17243789 0.0074772337 -0.018000182 0.1400846
-0.008448425 0.041921113 0.0031567933 0.06715738 -0.08562269 0.221299 0.08311791 -0.086043775

conv2.conv_i.weight f4 [16, 32, 1, 1]
00000000: 3bf5 71bd 0f2c 5e3d e0a1 cbbc 9772 dabd
00000010: d28f a63d 2c82 1abc 96eb d93b fbf7 0abe
00000020: 2273 963c 532d acbd c3bf 033d bd28 2b3c
00000030: af42 9a3c 2944 833d 8155 663d 95c8 9b3b
00000040: 00b5 e9bc 7515 163d 4065 9ebd 0ea0 d73d
00000050: 8004 bcbd a778 b03c 5d58 7e3d f30c 8fbd
00000060: f4fd 6f3d 4cfa bc3c 37bd bbbc a029 1c3d
00000070: dee5 00bd e947 61bd b19a adbc d5b2 713c
00000080: b423 2cbd 625d cd3d efd9 943d 5884 a53d
00000090: 5d72 1d3e c9a1 67bd 8cc2 a73b 062f d53d
000000a0: 2341 59bd 918c b8bd cba8 793c 9a92 a8bd
000000b0: 32a1 873d d89e 523d de31 9b39 dd53 3ebd
000000c0: f124 393d c45f 5f3d 9c5f 3ebd 9447 8fbd
000000d0: b0b8 443a 3cea 5fbd da0a 90bc 7ce4 6abc
000000e0: 8cc1 56bc 5d93 483d 8b48 7b3c 378d 0abd
000000f0: 82b2 533c 3021 f63b beb6 5ebd a6ef bd3c
00000100: 484f e43c 75bc 56bd f65e f53c 9a9f 8bbd
00000110: 7e72 05bd ac78 a3bc b933 2a3d 3d43 bbbc
00000120: 75c3 fa3c 5932 b5bd 19f8 2a3d d03d 9ebd
00000130: 3f67 6cbc 7ea3 803d 59a7 af3c 6d69 2bbd
00000140: 17ac 8d3d da8a 093d 368f 063e 6804 923d
00000150: 1b3a 79bd 84ee 9a3c 0f74 8abc d290 14be
00000160: 8de6 8fbd 3e47 2c3d 6f72 fc3c fa04 223d
00000170: 73b7 b3bb 8b93 233d 48ea 4a3d 6b42 87bd
00000180: e443 8cbd d392 853c fdff dcbc 50eb 3cbd
00000190: 04b7 933e 18c4 dc3c 1a8b 5f3c 6ce2 02be
000001a0: 542b aebc c23e 813b 1843 35bc 3f43 c5bb
000001b0: 3dfa 103e 0e58 16bd 4497 313d 0770 043c
000001c0: cb66 15bd 371f 15be 5459 d43d 1764 433b
000001d0: 7741 51bd 1469 98bc 6e1c 263d 8ee5 523c
000001e0: cb58 c23c 6b1a af3d f718 bebd 28bb 82bc
000001f0: 64a2 843c 95d4 8b3d 52d3 59b9 bde5 15bd
00000200: 4711 b13c a25d 98bc 546c babb 091c 97bc
00000210: 124d cb3d 588e 19bd 46f3 c0bb 5b82 203d
00000220: ae12 f9bc fde8 53bd 4788 533d 31c8 003d
00000230: 40b4 2b3d c7ae b63d ed9e 66bc 1737 72bc
00000240: c8f6 1bbb df33 133e 2f9f 37ba cd44 32bc
00000250: d1c9 8f3b df7b 75bc 6030 203d 1918 fd3c
00000260: 89f8 04bc dd96 803b 0aae 3abd acce c3bc
00000270: 7c4a e6bc 7894 173d d71e 1dbd 5c93 a6ba
00000280: b131 963b 8910 893c dea6 72bc b6bc 4c3d
00000290: ca7e 5abd 4926 113d e9ee 6e3c fd61 173e
000002a0: 916d dcbb 7ae2 823a ca9b 21bc f588 893c
000002b0: ab81 8e3d ccc1 2c3d 464a f13c eb94 fd3c
000002c0: e449 d6bd 6e8d 36bc 2de8 3dbd 8259 edbd
000002d0: 5317 843d 7751 0c3d f85e a13d 2168 9d3d
000002e0: a1df 283b 5b10 07be 147f 96bc f7b6 7fbd
000002f0: c8d6 fe3c 092c 2ebd 370f 8ebb 0a10 b1bd
00000300: d699 ed3c 07b2 7dbc a9ec ddbc aef7 00bd
00000310: e2a7 e7bd dfb8 70bd c39f cdbc 639b 90bb
00000320: 81e9 33bd 9045 8abd 6851 443d 2bc1 483d
00000330: 9aae 37bc 592e cf3d 4121 a5bd 8aee 2bbd
00000340: 5dec 273d 3ba7 1f3e 1602 4f3d d66e 103e
00000350: c5b9 be3d fb09 37bd 0bce 7bbd d46f de3c
00000360: 66d4 6f3d d58f f1bd 2649 3dbd 06cd 21bd
00000370: f037 ea3c 91aa 4e3d 83b9 e4bc 4f97 993c
00000380: df54 f6bb 8904 373d 62d9 6ebc ed3f f7bd
00000390: 49ae d23d 442f 643c aa4e 8dbc 6205 243d
000003a0: 1c57 5fbd 809f 643d 3729 62bd 373e e73c
000003b0: f9c8 91bd 676d 88bd 5ade f93c d110 663d
000003c0: 4ac3 a3bd 379e 1e3d aa88 d2bd 88d1 c93d
000003d0: 0b48 89bd 263d 61bc 3b4b b93d 149f b33d
000003e0: d0fc b23c 3e9f 6d3c 1e90 1c3d 612b 0e3d
000003f0: 24cf a2bd e5b5 b6bd fa0d 20bd 04b4 3e3d
-0.05907176 0.054241236 -0.024857461 -0.106663875 0.081329 -0.009430449 0.0066503985 -0.1357116
0.018365446 -0.084070824 0.0321653 0.0104467245 0.018830625 0.06409485 0.056233887 0.004754136
-0.02852869 0.036641557 -0.07734156 0.10528575 -0.09180546 0.021541907 0.06209599 -0.06984892
0.058591798 0.02306857 -0.022917373 0.038125634 -0.03146922 -0.05500022 -0.021191927 0.01475211
-0.042026237 0.10027577 0.0726813 0.08081883 0.15375657 -0.056550775 0.0051196273 0.1040936
-0.053040635 -0.09011186 0.015237997 -0.08231087 0.066225424 0.051421016 0.00029601058 -0.046466697
0.045201246 0.05453469 -0.0464779 -0.06996074 0.0007504327 -0.054666743 -0.0175833 -0.0143367015
-0.013107669 0.04896866 0.01533712 -0.03382608 0.012920978 0.0075112805 -0.054373495 0.023185562
0.027869835 -0.05242582 0.029952507 -0.06817551 -0.03257989 -0.019955002 0.041553233 -0.02285921
0.03061078 -0.08847494 0.04174051 -0.077266335 -0.014428913 0.06281184 0.021442102 -0.04184859
0.06917589 0.033579685 0.13140568 0.07129747 -0.06084643 0.018912561 -0.016901044 -0.1450837
-0.07026396 0.04206013 0.030816285 0.039555527 -0.0054845153 0.03993563 0.049539834 -0.06604465
-0.068488866 0.016305363 -0.026977533 -0.04612285 0.28850567 0.026948974 0.013644004 -0.12781686
-0.021260895 0.003944249 -0.01106336 -0.0060199792 0.14157958 -0.03670507 0.04335715 0.00808335
-0.036474984 -0.14562689 0.103686005 0.0029814297 -0.051087823 -0.018604793 0.040554456 0.012872113
0.02372398 0.08549961 -0.092821054 -0.015958384 0.016190715 0.06827656 -0.00020773456 -0.03659605
0.021614684 -0.018599335 -0.0056891833 -0.018445985 0.09926809 -0.037489265 -0.0058883755 0.039186817
-0.030404415 -0.051735867 0.051643636 0.031440917 0.041919947 0.08920055 -0.014075977 -0.014783642
-0.0023798216 0.14375256 -0.0007004616 -0.010880661 0.004388072 -0.014983146 0.039108634 0.03089528
-0.008115896 0.0039242343 -0.045576133 -0.02390226 -0.028111689 0.037006825 -0.03835949 -0.0012708711
0.0045835604 0.016731517 -0.014810292 0.049984656 -0.05334357 0.035436902 0.014583328 0.14783473
-0.0067269285 0.0009985708 -0.009863803 0.016788939 0.06958326 0.042177007 0.029454362 0.030954799
-0.10463312 -0.011142118 -0.046364 -0.11589338 0.06449761 0.03425738 0.07879442 0.07685877
0.002576806 -0.13189833 -0.018371142 -0.06243035 0.031108275 -0.042522464 -0.00433531 -0.08645637
0.029004019 -0.01548434 -0.027090387 -0.031486206 -0.11311318 -0.058770057 -0.025100594 -0.004413055
-0.04392386 -0.06751549 0.047929198 0.049012344 -0.011211062 0.10116262 -0.08062983 -0.041975535
0.040996898 0.15591137 0.0505391 0.1410478 0.093127765 -0.044687252 -0.061475795 0.027152933
0.05855217 -0.11795012 -0.046212338 -0.039502166 0.028591126 0.050455634 -0.02792049 0.018748907
-0.0075174416 0.04468206 -0.014578195 -0.1207274 0.102871485 0.013927285 -0.017249424 0.040044196
-0.054526433 0.055816174 -0.055215087 0.028227909 -0.071184106 -0.06661492 0.030501533 0.05616838
-0.07996233 0.038725104 -0.10279973 0.09854418 -0.06703194 -0.013747489 0.09047552 0.08770576
0.021849066 0.014503298 0.03822338 0.034709338 -0.07949665 -0.089214124 -0.03907583 0.046558395

conv2.conv_i.bias f4 [16]
00000000: 3e72 c43d 5c1b 83bd b1b1 4e3d 70e5 70bd
00000010: eb91 acbd aa65 b4bc ac85 a03c 5ce5 66bd
00000020: 2200 403c feef 27bd 7d85 de3b beda 023d
00000030: bba2 783d b315 2d3d fcfc 523c 8865 80bc
0.095921025 -0.06401703 0.05046243 -0.05881256 -0.08426269 -0.022021133 0.01959499 -0.056371078
0.011718782 -0.04100036 0.0067908154 0.03194689 0.060702067 0.042257022 0.012877699 -0.015673414

conv3.conv_r.weight f4 [1, 16, 5, 5]
00000000: 0b1d 3bbd cd93 27bd 98c7 4d3d ab1b 353d
00000010: dcc3 a23d d694 62bd 065d d7bc fd50 193d
00000020: c0bb 1c3c 5d01 4a3d 088a d0bd 0a0c 14bd
00000030: 5b26 623c a3dc 323d 2972 b73d bb14 65bd
00000040: 0ab1 92bc e71d e53a 6ed3 903a 61eb 423d
00000050: 7808 abbd 7738 57bd 5ff6 973c a165 b03c
00000060: 37dd ae3d 4c1e 52bd 6051 55bd 1237 ecbd
00000070: dfde 3cbd b0b2 09be befc a4bb 4122 f239
00000080: 5d0c bfb8 a127 ed3c 300a 87bc cbad ea3b
00000090: bfc1 423c c00f 26bb bbdd 8b3c 88e9 d8bb
000000a0: af02 1abc e9bc 17bc 6aac 1e3c 8546 02bd
000000b0: 5265 6ebd 999a ae3d debd 9b3d 34c8 063e
000000c0: d16d bc3d 4d7a db3d 82d0 10bd c913 f4bc
000000d0: 70c3 a73a 315c 42bc e4ab f5bc 96a7 c53b
000000e0: f298 e53c acdc efbb c10c 943c 5426 b83b
000000f0: c323 49bd e8b7 fdbc bed7 bdbc d23c 49bc
00000100: de18 1ebc 26bd f53c 400c 393b 4edd 013d
00000110: 08f7 023b 1dd7 233c 7ea6 69bd 3477 19bc
00000120: 4ed9 3cbd 9de7 43bc 48ac 75bd f03d 8cbb
00000130: 05d9 e1bb f7c5 e8bb b0d5 da3a dae9 5f3c
00000140: 472f 473b 1620 e1bb 65db 0f3c 2d1d e439
00000150: db9d e1bb 65a1 47bb 99b1 19bc 4e8e 573a
00000160: d807 fa3b 96bf 97ba 1b64 b23b f950 ff3a
00000170: 7431 8fbb 373f 05bb 3a4b af3b de90 a1bc
00000180: ba99 33bc 055d 8bbc efac ce3a 95f9 05bc
00000190: 71ed f93b 170f e13c 8dcb 3d3c 0199 f83a
000001a0: 33a0 693b 1298 3cbc 4163 8cbc 2923 17bc
000001b0: f71f 65bc bcd4 f03b 40b9 063c e576 af3c
000001c0: 3ebe ee3b c1c6 543b f9e1 6b3b 4b1b bf3b
000001d0: d4dc a5bb 7b92 e53b 679f e23b e9a3 b4ba
000001e0: e3fa a5bc cc2b 01bc 00fd 2abc 62da b9bb
000001f0: 40ef 2e3b 69fa 63bb 0f12 c23b eb5d 4cbc
00000200: 3055 0a3b fa69 243c 2d6d 143c 4d26 e7bc
00000210: 70c7 f6b9 5512 77bc 0820 f93b 54b0 89bc
00000220: c4d5 183d 3602 223c 69aa aebb dc57 99bc
00000230: 93c4 293c d362 e5bc 5696 a5bc 9949 5a3c
00000240: 231e 52bb b939 0f3c 6b61 2e3c d0e6 88bb
00000250: b28d 89bc 3dad f7b8 3cc1 873c 92d7 9a3c
00000260: 4073 5e3c 130d ab3b 7536 ea3c 3078 8e3b
00000270: f225 f8b9 8748 90bb a51c d0bb 72e2 073b
00000280: 59a8 083c 3bda 043c a474 bf3c 7247 013c
00000290: 96ab f93c 47c0 25b8 95cb cf39 8083 a2bb
000002a0: 7f09 84ba 8e0a 573b 1c54 b83c dd34 383c
000002b0: d0bc fb3c 6969 483c dfdc f93c 69bb 043d
000002c0: 3fe2 f83c 392e b73c 370b f93a a154 e73c
000002d0: db4f 203c 67a9 15bc 9cd5 1dbc 9127 33bd
000002e0: 6d65 85bb ab31 293d 727e 883c 8a4f 5d3d
000002f0: 3b07 dd3c 2216 a83c e11c 62bc cc0b 333c
00000300: 2b4e 01bd 2728 8fbc fe5f bcba ce47 fa3c
00000310: 77c5 39bc 4319 443d ac5f 143b e9bc 923d
00000320: c514 533c 3814 873c 78da 5f3c 0329 2ebb
00000330: 2a15 9b3c 82cc efbb a6a1 3b3c 5bd8 843b
00000340: f612 2f3b 265e 743a 7d74 1d3c f29a b3bb
00000350: 4c9e c1bb 3de0 f3bb 6795 a03b 403c 2e3b
00000360: 63a0 8b3b 9403 013b 8d8f 71b9 1fd8 0f3c
00000370: 4696 493c 67fc b43b c9d8 743c 15ee 113b
00000380: 4959 c83c b015 aa3a 892c b9bb 9e00 bb3b
00000390: d9f9 6bbc bb1f 543c c39e ee3b f714 eb3a
000003a0: fbfb a0bc cb8a f03c af68 65bc 73f7 f8bb
000003b0: 803d c1ba 6708 bf3b 6162 43bc 53b8 9e3c
000003c0: 2707 203b 9912 18bc 47b0 603c 856a b6bc
000003d0: f1a4 1839 a7ba d43b 01ab 623c 1dac 20bc
000003e0: 927f 5a3c b63f 16ba 5b49 e23c e8d5 043c
000003f0: 624a 963b b285 963b f9a4 903c 3bf7 a6ba
-0.045681994 -0.04091244 0.050239176 0.04421584 0.079475135 -0.055317722 -0.026289474 0.037430752
0.009566247 0.049317706 -0.10182577 -0.036144294 0.01380309 0.043667447 0.08957321 -0.055927973
-0.017906684 0.0017480225 0.0011049339 0.047587756 -0.08351225 -0.052544083 0.018550096 0.021532835
0.08538287 -0.051298425 -0.05207956 -0.11533941 -0.046110984 -0.1344707 -0.005035012 0.00046183358
-9.1098926e-05 0.02894956 -0.01648435 0.007161831 0.011887013 -0.0025338978 0.017073503 -0.006619636
-0.009400054 -0.009261348 0.009684661 -0.031805534 -0.058202095 0.08525581 0.07604574 0.13162309
0.09200633 0.107166864 -0.0353551 -0.02979459 0.0012799334 -0.0118628 -0.02998919 0.0060319407
0.028027032 -0.0073200073 0.018072488 0.0056198034 -0.04910637 -0.030971482 -0.023174163 -0.012282567
-0.0096494835 0.02999742 0.0028236061 0.031705193 0.0019983668 0.0100000175 -0.057043545 -0.009366799
-0.046105675 -0.011957076 -0.059978753 -0.0042798445 -0.006892326 -0.0071036774 0.0016695764 0.013666594
0.003039317 -0.00687028 0.008780335 0.00043509286 -0.006885273 -0.003046119 -0.0093807215 0.0008222804
0.0076303296 -0.0011577483 0.0054440624 0.0019479088 -0.004369909 -0.0020331868 0.005349544 -0.019722398
-0.010961944 -0.017012129 0.0015768091 -0.008177181 0.007627182 0.027473016 0.011584175 0.0018966497
0.0035648465 -0.011510866 -0.017137172 -0.009224691 -0.013984672 0.0073495787 0.008222878 0.021418998
0.007285862 0.00324671 0.0035992844 0.005832111 -0.005061725 0.007005987 0.006915975 -0.0013781759
-0.020261234 -0.007883977 -0.010436296 -0.005671785 0.0026692897 -0.0034786707 0.005922563 -0.012473564
0.0021107905 0.010035032 0.009059233 -0.028216505 -0.0004706937 -0.015080054 0.0076026954 -0.016807713
0.037313238 0.009888222 -0.005330373 -0.018718652 0.010361808 -0.028001225 -0.020213287 0.013323211
-0.003206142 0.0087417895 0.010643343 -0.0041779056 -0.016791198 -0.00011810146 0.016571634 0.01890162
0.013577282 0.0052200644 0.02859042 0.0043478236 -0.00047330518 -0.004403177 -0.006351071 0.0020734337
0.008340918 0.008108671 0.023371048 0.007890569 0.030477326 -3.9518138e-05 0.00039633797 -0.0049595237
-0.0010073631 0.0032812688 0.022501044 0.011243072 0.030729681 0.012232163 0.030500827 0.03240529
0.03038132 0.022360908 0.0019000535 0.028238596 0.009784664 -0.009134627 -0.009633448 -0.043738905
-0.004070929 0.041307133 0.016661856 0.054030932 0.026980987 0.020518366 -0.013800831 0.010928106
-0.031568687 -0.0174752 -0.001437187 0.030551817 -0.011338583 0.047875654 0.0022640033 0.07164938
0.01288337 0.016489133 0.013662927 -0.0026574738 0.01893099 -0.0073180804 0.011452114 0.004054112
0.0026714182 0.00093218905 0.0096102925 -0.0054811174 -0.005908763 -0.007442503 0.0049006226 0.0026586205
0.004261063 0.001968597 -0.00023037028 0.008779555 0.012303894 0.0055232528 0.014944264 0.0022267152
0.024456637 0.0012976434 -0.005651061 0.0057068607 -0.01440283 0.012947018 0.0072821095 0.0017935325
-0.019651404 0.029363057 -0.014002009 -0.0075978576 -0.001474306 0.005829859 -0.011925311 0.019375002
0.0024418326 -0.009281778 0.013713903 -0.02226759 0.00014557295 0.0064919773 0.013834716 -0.00980666
0.013336079 -0.00057315396 0.02762287 0.00810764 0.004586504 0.0045935744 0.01765679 -0.0012738475

conv3.conv_i.weight f4 [1, 16, 5, 5]
00000000: 7cbd 943d 0327 573d 8ab0 203d 37df a5bc
00000010: e2c5 82bc 8aef 063b e86f ffbc b550 ef3b
00000020: 1032 8dbc 57b5 e2bc 88cd 693d 1299 c33c
00000030: f6b3 9c3a d4be c83a 53ac 373d ecfa cabc
00000040: 2823 963c f279 fc3b 46bd a5bc 3be2 d8bc
00000050: c104 d8bb f904 12bd bdd3 85bb 3dd5 bcbc
00000060: 1134 e2bc c712 043d edb5 073c 9348 6b3d
00000070: 90b9 24bb 914b fdbb ab06 6fba 541e 91bc
00000080: e3bb 7cbb c8fa 0d3d 756d fcbc fff1 313c
00000090: df99 c4bb 116f 61bc 14dc cfb8 4aad 93bc
000000a0: a469 99bb 3d1a 833b db89 803b 6c21 223c
000000b0: 4374 17bc ca84 6fbd 2d4d 20bd 849c dfbc
000000c0: 3b94 93b8 e037 ebbc a111 5e3d 0f3f a5bb
000000d0: 3974 803c 343b a93c 7363 d23c 3120 79bb
000000e0: f749 623b 6134 7b3c 267d dbbc ea69 133b
000000f0: 8f9a 2d3d 36b8 153d a8e9 a73c a820 d23c
00000100: 32b3 2e3c 2a42 b13c 0580 5ebc a5ab 033c
00000110: 3279 22bc 1ee5 0b3c 5dfd 8b3d 9b5f 093d
00000120: 8b45 573d b1aa c33b 563a 413d e7c9 babd
00000130: 1d85 5bbd 9830 8ebc b8b9 b63b bd9c a23d
00000140: fd22 14bd b303 26bc ff85 92ba 7dc2 b6b8
00000150: 6186 243d 23d1 98bd 26c6 13bc a169 1d3c
00000160: df4a 733c 863c b93d e3d5 24bc 0f16 183b
00000170: 1a14 71bb cd4a 513b 05f8 f63c 4d7b eebd
00000180: b991 8fbc b54a 243c c438 a13c 2e5d 003e
00000190: 4ad4 0d3e 2dbd b63d 4c7d af3d d59a 2f3d
000001a0: c40e 893d 45f5 49bc f939 873b 1118 463b
000001b0: 38a0 da3c cc95 503c 4a79 823d 9017 2c3d
000001c0: f291 c03c af88 e23b e5a8 803c 67de 523c
000001d0: 3dc0 953c 5970 9c3c 4348 613c 7566 353d
000001e0: fc1c 5c3d 20a6 843d 4774 213d ceeb 563d
000001f0: 8e9b 4b3d 5325 d43d 1244 8c3d 1f68 dd3d
00000200: d78d 443d 6493 1d3e 497b b6bb 1392 983b
00000210: 7e17 9f3a 572c 7dbc 0b72 91bb 6907 f13c
00000220: 8cc1 063d 2dfd 703d 39f9 043d 10eb 8e3d
00000230: aeb9 a7bc 67b8 09bd aafd 713c d8ec 14bd
00000240: 8212 b33c a870 753d 5929 063d c2e1 183d
00000250: c2b0 f73c e216 cd3d 9984 56bd 0e26 18bd
00000260: 9ec4 7ebd ea22 60bd 3853 a8bd 5992 b7bc
00000270: 2413 e3bb 7fc5 96bc 14ca eb3a a822 ffbc
00000280: 2cb7 3ebd a65a 26bd 6caa 48bd 7829 72bd
00000290: 0166 7abd 1968 a9bb d470 b83b 8ce5 b5bb
000002a0: 6028 b73b bd3b af39 3959 c1bd e1c0 60bd
000002b0: d6d8 e5bd b367 90bd a7f4 e6bd 17c8 d1bc
000002c0: ff53 02bb cd8e 19bd 2ada 903c fe4a 963c
000002d0: aed1 77bc b1b3 f83b 0f20 afbc 5956 ad3b
000002e0: 64aa 1e39 7c12 f3bc 4ce0 99bc dc88 36bd
000002f0: 7601 eebc e67b 57bd be79 36ba d04f 8e3c
00000300: 770e 6cbd 150c 053d e579 2bbc e94e 86bd
00000310: f74f 73bd 9f60 3cbd 0f34 5abd e0d8 1fbd
00000320: c1dd 38be c74a 26be 131d 65be a94e f6bd
00000330: aecc 38be 6119 7bbd ba4d 1bbd 30bc 36bd
00000340: d958 1fbd 3475 a0bc 30a4 c1bd 392b b9bd
00000350: 37fd d7bd a87f 85bd be85 babd 620b 29bd
00000360: 547d 14bd 760b 0fbd be55 18bd 4bd1 febc
00000370: 37bf 41be 3cf5 cdbd d668 24be 4c04 08be
00000380: 254f 05be 159d edbd c4a6 65bd e70b adbd
00000390: 4611 52bd a60b c6bd b359 463c a208 363b
000003a0: 338e d0bb e161 c13c 071a c0bb 5431 4dbd
000003b0: cbc9 01bd 23cc 9dbd 0297 97bc 930b 82bd
000003c0: db9a cb3b 935d a33c 2479 c4ba 14c0 a03b
000003d0: 3698 61bb 9f0c 67bd 4a5d 38bd c620 95bc
000003e0: 6078 dabb 8671 6cbd 5efa 183e 88ec c53d
000003f0: a3eb 253e 0a6e fb3d 98c6 343e 702f 053d
0.07262704 0.05252744 0.03923086 -0.020248039 -0.015963499 0.0020589554 -0.03118129 0.007303322
-0.017235786 -0.02767436 0.057080775 0.0238767 0.0011955488 0.001531566 0.044842076 -0.024777852
0.01832731 0.0077049667 -0.020231854 -0.026475063 -0.0065923636 -0.035649274 -0.004084079 -0.023050899
-0.027612718 0.03224447 0.008283121 0.05744226 -0.0025135018 -0.0077299555 -0.000911812 -0.017714657
-0.0038564138 0.03466299 -0.030813912 0.010860919 -0.005999788 -0.01375939 -9.911522e-05 -0.018026967
-0.004681783 0.0040009306 0.0039226837 0.009895664 -0.009244028 -0.058476247 -0.0391361 -0.027296312
-7.037116e-05 -0.028713167 0.05421603 -0.0050429176 0.01568042 0.020658113 0.025682187 -0.0038013572
0.003452895 0.015332312 -0.026793074 0.002249355 0.042383727 0.03655263 0.020497158 0.025650337
0.010662841 0.021637995 -0.013580327 0.008036529 -0.0099165905 0.0085385125 0.068354346 0.033538442
0.052556556 0.0059712757 0.047174774 -0.09120541 -0.053593744 -0.017357156 0.0055763386 0.07940052
-0.03616618 -0.010132718 -0.001117885 -8.7146625e-05 0.040167216 -0.07461765 -0.00901941 0.009607703
0.014849394 0.09044747 -0.01006076 0.0023206507 -0.0036785663 0.0031935454 0.030147562 -0.116446115
-0.01752554 0.010027577 0.019680388 0.12535545 0.13850513 0.08922801 0.0856882 0.04287227
0.066922694 -0.012326543 0.004126784 0.0030226747 0.026687726 0.012731027 0.0637079 0.04201466
0.023507092 0.0069132666 0.015705535 0.012870408 0.018280143 0.01909654 0.013750139 0.044287164
0.05373858 0.06476998 0.03941753 0.052470975 0.049708895 0.103586815 0.06848921 0.10810875
0.04798683 0.15388256 -0.005568896 0.0046560853 0.0012137739 -0.015452466 -0.004438644 0.029422479
0.032899424 0.058835197 0.03246424 0.06978428 -0.020474281 -0.033623125 0.014769951 -0.036358684
0.021859411 0.05992189 0.032754276 0.037324674 0.030235652 0.1001413 -0.05237255 -0.037145667
-0.062199228 -0.054720797 -0.08218998 -0.022408651 -0.006929772 -0.01840472 0.0017989301 -0.031144455
-0.046561405 -0.040613793 -0.048990652 -0.05912158 -0.061132435 -0.00516988 0.0056286845 -0.0055510458
0.00558953 0.0003342311 -0.09440846 -0.054871444 -0.11222999 -0.07051029 -0.112771325 -0.025608106
-0.0019886491 -0.0374897 0.017682154 0.018346306 -0.015125675 0.0075897803 -0.021377591 0.0052898345
0.0001513153 -0.0296719 -0.01878371 -0.044564113 -0.029053431 -0.052608393 -0.000696089 0.017372042
-0.057630982 0.032482225 -0.010466074 -0.0655802 -0.059402432 -0.045990583 -0.053272303 -0.039025187
-0.18053342 -0.16239463 -0.22374372 -0.12026722 -0.18046829 -0.0613035 -0.037915923 -0.044613063
-0.03890309 -0.019587137 -0.094551444 -0.09041447 -0.10546344 -0.06518489 -0.091075405 -0.04127062
-0.036252335 -0.03492304 -0.037191145 -0.031105658 -0.18920599 -0.1005654 -0.16055617 -0.13282889
-0.13018472 -0.11602227 -0.056067243 -0.08449536 -0.051286004 -0.096701905 0.012106347 0.0027776142
-0.0063646077 0.023606243 -0.0058624777 -0.05009587 -0.031686585 -0.077049516 -0.018504623 -0.06349864
0.0062135286 0.01994208 -0.0014989716 0.00490571 -0.0034423 -0.05640852 -0.045010842 -0.018204104
-0.006667182 -0.057725452 0.14939258 0.096642554 0.1620317 0.12276848 0.17653883 0.032515943
