ModelZoo/models/my_model/SRCNNpara_1218_rx_1sir_-10_real_channelnet.pth (torch_old, 33520 bytes, 5 tensors)

conv1.weight f4 [64, 1, 9, 9]
0	0x3e11ecaa	0.14250436
1	0xbc9e9143	-0.019356376
2	0x3c35c29c	0.011093762
3	0xbe3f43dd	-0.18678232
4	0x3dc763f0	0.097358584
5	0xbcc9712e	-0.024590101
6	0x3c517482	0.012784125
7	0x3c126225	0.008934532
8	0x3e078a00	0.13236237
9	0xbd98cf57	-0.07461422
10	0x3d8dcacd	0.06923447
11	0x3d8a6f70	0.06759536
12	0x3c7f7492	0.015591757
13	0x3df51e81	0.11968709
14	0xbc8cc293	-0.017182624
15	0x3cff7cb2	0.031187389
16	0xbdd6b8a9	-0.1048444
17	0xbd815613	-0.063152455
18	0xbe125eb9	-0.14293946
19	0x3de4dc62	0.11174847
20	0x3e0422f7	0.12903963
21	0xbe14063e	-0.14455506
22	0xbdefcdda	-0.11709185
23	0xbdb35506	-0.08756451
24	0x3d9e07b9	0.07716317
25	0xbcf52357	-0.029924078
26	0x3d74c302	0.059756286
27	0xbecbc7eb	-0.39800963
28	0xbcf741e7	-0.030182792
29	0x3e1ef728	0.1552397
30	0xbe0ad0c4	-0.135562
31	0xbdd9c37f	-0.10632991
32	0x3cd4d57d	0.025980705
33	0x3e1b158b	0.15144937
34	0x3bd96ed1	0.006635525
35	0x3c848f29	0.016181545
36	0xbea7d092	-0.32776314
37	0x3de1805a	0.11010809
38	0x3e19f87e	0.15036198
39	0xbcba78f8	-0.02276276
40	0x3cadc8bd	0.021213884
41	0x3d361423	0.044452798
42	0x3c108c48	0.008822508
43	0xbe126f9d	-0.1430039
44	0xbdb6c974	-0.08925143
45	0xbcb0de58	-0.021590397
46	0xbded409a	-0.115845874
47	0x3d97f5e3	0.07419946
48	0x3e2642f1	0.16236474
49	0x3d2cf3d2	0.042224713
50	0xbc5b91e8	-0.013401486
51	0xbbcc8228	-0.006241102
52	0xbc01990b	-0.007910023
53	0x3c8283e4	0.015932031
54	0x3e5025be	0.20326898
55	0x3d257f86	0.04040482
56	0xbdc1ddc6	-0.09466128
57	0x3dd659b4	0.10466328
58	0x3d00a15c	0.031403884
59	0x3ddc92e6	0.10770206
60	0xbbedff07	-0.0072630676
61	0x3ddd6ee4	0.10812166
62	0x3e5b7b98	0.21433866
63	0x3e9c5c04	0.30538952
64	0x3cba9e5d	0.022780592
65	0xbe824b96	-0.25448292
66	0x3db21e04	0.08697131
67	0xbd4055c2	-0.046956785
68	0x3da6fb10	0.08153355
69	0xbe5aea8d	-0.21378537
70	0x3dc35eaa	0.0953954
71	0x3d4febe2	0.050762065
72	0x3eb23d43	0.34812364
73	0x3ca655a0	0.020304501
74	0xbed3afe2	-0.41345125
75	0x3d623cd1	0.05523378
76	0x3d0ab42e	0.03386324
77	0x3cad072b	0.021121582
78	0xbe34dd4a	-0.1766254
79	0x3e088161	0.13330604
80	0xbebd800b	-0.37011752
81	0xbdf7bb30	-0.1209625
82	0x3dc2e7f3	0.09516897
83	0x3c07864c	0.008271765
84	0x3d9be464	0.076119214
85	0xbd6bf20b	-0.057603877
86	0x3cd6d779	0.026225792
87	0x3e8bbdf1	0.2729335
88	0xbcd294b6	-0.025705677
89	0xbc45386d	-0.012037379
90	0xbdb301ff	-0.08740615
91	0x3d071b5c	0.032985076
92	0xbd22e5c9	-0.03976992
93	0x3ce2353d	0.027613277
94	0xbe088646	-0.13332471
95	0x3b47c87b	0.0030484486
96	0xbdf623b9	-0.12018532
97	0xbe57d7af	-0.2107837
98	0xbeb185bc	-0.34672344
99	0xbb416913	-0.0029512092
100	0x3e281edd	0.16418023
101	0x3d63f457	0.055652943
102	0xbe56ec7d	-0.2098865
103	0xbe2bb1fd	-0.16767116
104	0xbc4e5a50	-0.012594774
105	0x3d1853db	0.037189346
106	0x3d254f90	0.04035908
107	0x3e038ed9	0.12847461
108	0xbde36296	-0.11102788
109	0xbd309325	-0.043109078
110	0xbdeafae2	-0.11473633
111	0x3d34ad9b	0.044110876
112	0xbd362c76	-0.044475995
113	0xbbb4a825	-0.0055132085
114	0x3d9235f6	0.071391985
115	0x3e07f500	0.13277054
116	0x3e41f8e8	0.18942606
117	0xbe11e30a	-0.14246765
118	0x3d895fd9	0.067077346
119	0x3e2aa770	0.16665435
120	0x3e348ebf	0.17632578
121	0xbd056bdb	-0.032573562
122	0x3d8d11fa	0.068881944
123	0x3db21118	0.086946666
124	0x3ebe425a	0.37159997
125	0x3def54cc	0.116860956
126	0x3ce1a162	0.027542774
127	0x3c1db7d2	0.009626346
128	0xbd48e7c2	-0.049049146
129	0x3e1a07ae	0.15041992
130	0x3df7162b	0.12064775
131	0x3e2fd81b	0.17172281
132	0xbd184e22	-0.03718389
133	0x3dc3d621	0.09562326
134	0xbe58ff17	-0.21191059
135	0xbbba5f7b	-0.0056876517
136	0x3d4ff89b	0.050774198
137	0xbdc87b7c	-0.09789178
138	0xbdf57c82	-0.119866386
139	0x3c76a998	0.015055083
140	0xbd40bb9d	-0.047053922
141	0xbe88e5f0	-0.26737928
142	0xbd3f8cc6	-0.04676511
143	0xbe61d1d3	-0.22052698
144	0xbe1e8dc9	-0.15483774
145	0x3e3bd293	0.18342046
146	0xbdac9f64	-0.08428839
147	0xbdebafee	-0.11508165
148	0xbe66b3cb	-0.22529523
149	0xbe3004d1	-0.17189337
150	0xbea102ae	-0.31447357
151	0xbe332bfb	-0.17497246
152	0xbe413553	-0.18867998
153	0xbdeea3a4	-0.11652306
154	0x3e0b18b5	0.13583644
155	0x3e0d0255	0.13770421
156	0xbd646967	-0.055764582
157	0x3c741947	0.014898605
158	0x3ebb10f1	0.36536363
159	0xbdd38ced	-0.10329614
160	0x3e9846a4	0.29741395
161	0x3ef1fa86	0.47261447
162	0x3d64d6c3	0.055868875
163	0xbe3ec3dc	-0.18629402
164	0xbd1e6e8d	-0.03867965
165	0x3d6b3e03	0.057432186
166	0x3ddbf434	0.107399374
167	0xbcdf65af	-0.027270166
168	0x3c7d5e42	0.015464367
169	0xbe07e27b	-0.13269989
170	0xbe2fd5fb	-0.17171471
171	0x3ec2178d	0.37908593
172	0x3e775e2c	0.24157017
173	0x3e828f98	0.25500178
174	0x3c4e3624	0.01258615
175	0xbe262d45	-0.16228206
176	0xbd788d18	-0.060681432
177	0x3e191873	0.14950733
178	0x3dbb0d8e	0.09133445
179	0x3e9b0218	0.30275035
180	0xbe3cb19e	-0.1842713
181	0xbe3d0d7d	-0.18462177
182	0xbe8feb5b	-0.2810925
183	0x3c615736	0.013753703
184	0xbdd88c41	-0.10573626
185	0xbe414251	-0.18872954
186	0x3d06b7a1	0.032889966
187	0x3d92b3b5	0.07163183
188	0x3e9965d3	0.29960498
189	0xbd4c08cd	-0.04981308
190	0xbe4a6d04	-0.19768149
191	0xbde60ce2	-0.11232926
192	0x3e304ec5	0.17217548
193	0x3d2e6d18	0.04258451
194	0x3d744f7d	0.05964612
195	0xbcf6c0ea	-0.030121285
196	0xbe3d5f88	-0.18493474
197	0xbe41785a	-0.18893567
198	0xbc66b5fd	-0.014081475
199	0x3e22950a	0.15877166
200	0xbe019f60	-0.12658453
201	0x3d7d4b7f	0.061839577
202	0x3e4a7879	0.19772519
203	0x3e24459e	0.16042182
204	0xbb953a8c	-0.0045540985
205	0xbd3a4ba5	-0.045482296
206	0x3deae009	0.114685126
207	0x3dfa6029	0.12225372
208	0x3dd9f93b	0.1064324
209	0xbd6f9e66	-0.05850067
210	0xbd37c7eb	-0.04486839
211	0x3d56000f	0.05224615
212	0x3d4c2c4f	0.049846943
213	0xbd296ae7	-0.041361716
214	0xbe060cdb	-0.13090841
215	0xbe1a472c	-0.15066212
216	0x3e0d4a32	0.13797835
217	0xbd900078	-0.070313394
218	0xbd89626a	-0.06708224
219	0xbcbedaca	-0.023297686
220	0x3dce0c2f	0.100609176
221	0xbd68ab7c	-0.056804165
222	0xbc3be6df	-0.011468618
223	0xbcbabf91	-0.022796424
224	0xbe105a9a	-0.14097062
225	0x3d29d850	0.041466057
226	0x3c72151a	0.014775539
227	0x3e50085c	0.20315689
228	0x3c0dfad1	0.008665756
229	0xbce5f192	-0.028069291
230	0xbccaf215	-0.024773637
231	0x3d3fb0d1	0.046799485
232	0x3e45b950	0.19308972
233	0x3ceda97d	0.029011482
234	0xbe31bc0a	-0.17356887
235	0xbe642230	-0.22278666
236	0x3eb50b6b	0.35360274
237	0xbe0627ad	-0.13101073
238	0xbe520824	-0.20510918
239	0xbe0f26a7	-0.13979588
240	0x3e1177d5	0.14205869
241	0x3e614966	0.22000656
242	0x3daed835	0.08537332
243	0xbd105568	-0.0352377
244	0xbdb062c2	-0.086125866
245	0x3df55b72	0.119803324
246	0xbd94169a	-0.072308734
247	0xbea29240	-0.31752205
248	0xbd978d45	-0.07399992
249	0xbd62a284	-0.05533077
250	0xbdcd739a	-0.10031815
251	0x3ce3edd5	0.027823368
252	0x3d089ab5	0.033350665
253	0xbe350a1b	-0.17679636
254	0x3c6b5312	0.014363067
255	0xbdc93155	-0.098238625

conv1.bias f4 [64]
0	0xbdfbebb7	-0.123008184
1	0xbe82bf11	-0.25536397
2	0xbf091207	-0.5354313
3	0x3deec522	0.11658694
4	0xbe8ac9c4	-0.2710706
5	0xbeb3f838	-0.35150313
6	0xbe262879	-0.16226377
7	0xbf4734fb	-0.77815217
8	0x3e1eed95	0.15520318
9	0xbd01d8f0	-0.03170103
10	0xbf893a25	-1.0720869
11	0xbf5f39ea	-0.87197745
12	0xbdaf3ff5	-0.08557121
13	0x3ca545a4	0.020174809
14	0xbdb47324	-0.08811024
15	0xbddb7628	-0.10715896
16	0x3e4f5294	0.20246345
17	0xbdfb5cfd	-0.122735955
18	0x3dc02fa6	0.09384088
19	0x3dae89e8	0.08522397
20	0xbdcc3d55	-0.09972636
21	0xbd02f590	-0.031972468
22	0xbdb195a2	-0.08671118
23	0x3efb0a45	0.49031273
24	0x3e4ace84	0.19805342
25	0xbedd03e6	-0.43167037
26	0xbdb02f20	-0.086027384
27	0xbe162969	-0.14664234
28	0xbdf42c40	-0.119225025
29	0xbdf46b62	-0.11934544
30	0xbc865f39	-0.016402828
31	0xbdc1208e	-0.094300374
32	0xbc1aa4db	-0.009438719
33	0xbf1b8afc	-0.6075895
34	0xbcaec49c	-0.021333985
35	0xbde3498e	-0.11098014
36	0xbc8ffcf4	-0.017576672
37	0x3e147e05	0.14501198
38	0xbd0bce19	-0.034132097
39	0x3e357f0d	0.17724247
40	0xbd57f9c3	-0.052728426
41	0xbe58dcce	-0.2117798
42	0xbd3519f2	-0.044214197
43	0x3e2a5182	0.16632655
44	0xbf185312	-0.59501755
45	0x3db75255	0.089512505
46	0xbea2e85d	-0.31817904
47	0x3decf781	0.11570645
48	0xbe4d1b54	-0.20029956
49	0xbf3e09f2	-0.74233925
50	0xbd1326e8	-0.035925776
51	0xbc5b89ca	-0.013399551
52	0x3d56aff2	0.05241389
53	0xbd9583a3	-0.07300498
54	0xbdcac49a	-0.0990078
55	0x3e176697	0.14785229
56	0x3e09499d	0.13406987
57	0xbf81f719	-1.0153533
58	0xbe4e734a	-0.20161167
59	0xbf0258c7	-0.50916713
60	0xbdb16daa	-0.08663495
61	0xbd97ca91	-0.07411683
62	0xbe5acdc6	-0.21367559
63	0xbdb4e946	-0.08833556

conv2.weight f4 [32, 64, 1, 1]
0	0xbd76a9d9	-0.060220573
1	0xbd5ff6a9	-0.054678593
2	0xbe5809d0	-0.21097493
3	0xbdf4a8b0	-0.11946237
4	0x3c95175f	0.01819962
5	0xbe14613c	-0.14490217
6	0x3d804c2c	0.06264529
7	0xbe1ee083	-0.15515332
8	0xbe1a914c	-0.15094489
9	0x3df81a80	0.121144295
10	0xbe086a6d	-0.13321848
11	0x3d24f5da	0.040273525
12	0x3e8629c4	0.2620374
13	0xbdf0982b	-0.11747774
14	0xbe0a0a42	-0.13480476
15	0x3e31f6b4	0.17379266
16	0x3e14dc48	0.14537156
17	0xbd30d381	-0.043170456
18	0x3e2a37a5	0.16622789
19	0x3e25892e	0.16165611
20	0xbdcd42a0	-0.10022473
21	0x3dcc43bc	0.09973857
22	0x3cce217e	0.025162455
23	0xbd7d41cf	-0.061830338
24	0xbaa79517	-0.0012785521
25	0xbe15be34	-0.14623338
26	0xbe882b26	-0.2659542
27	0xbc71ef9e	-0.014766602
28	0xbd4b3820	-0.04961407
29	0x3d8c3ec9	0.06847913
30	0x3d716762	0.058936484
31	0xbcebb6dd	-0.02877372
32	0x3d2f63d8	0.042819828
33	0xbe8bc086	-0.2729532
34	0x3d987201	0.074436195
35	0x3de3850d	0.11109362
36	0x3db8ac6c	0.09017262
37	0x3dfa1916	0.12211816
38	0x3d888059	0.066651054
39	0xbe3327f8	-0.17495716
40	0xbe82d772	-0.25554997
41	0x3e43c832	0.19119337
42	0xbdafd8af	-0.08586251
43	0xbe0cf985	-0.13767059
44	0xbe241ef4	-0.16027433
45	0xbd10df56	-0.03536924
46	0xbdbf0122	-0.09326388
47	0x3e1e960e	0.15486929
48	0xbe9e2dbf	-0.30894276
49	0xbd4f51d4	-0.050615147
50	0x3e77ca12	0.24198177
51	0xbe2d64c3	-0.16932969
52	0xbea538b9	-0.32269838
53	0x3e1725de	0.14760539
54	0x3e0c0a89	0.13675894
55	0xbe0177e6	-0.12643394
56	0x3d5024b7	0.050816264
57	0xbe30f425	-0.17280634
58	0x3dea791c	0.11448881
59	0xbd8528fc	-0.06501958
60	0xbe7bed46	-0.24602231
61	0x3d03a7c9	0.032142434
62	0x3dc6d617	0.09708803
63	0xbf174ace	-0.5909852
64	0xbc941920	-0.018078387
65	0xbd0d7111	-0.034531657
66	0xbd167e5c	-0.0367416
67	0xbca0efd8	-0.019645616
68	0x3e118b8c	0.14213389
69	0xbde25b35	-0.110525526
70	0xbcd2c474	-0.025728442
71	0x3dd5f86b	0.104477726
72	0xbd3ff410	-0.046863616
73	0x3d51b09b	0.051193815
74	0x3d0b88f6	0.034066163
75	0x3b8c0499	0.004273009
76	0xbdca55e4	-0.098796636
77	0xbde708cf	-0.11280977
78	0xbd005195	-0.031327803
79	0xbdeb2d01	-0.11483193
80	0x3de1c1ce	0.110232934
81	0xbcfcbf4b	-0.030852934
82	0x3dd4f59e	0.1039841
83	0xbda57788	-0.080794394
84	0x3ca9dd74	0.02073548
85	0xbd506778	-0.050879925
86	0xbe58b6d5	-0.21163495
87	0x3e7807d5	0.24221738
88	0xbd1f4dfb	-0.038892727
89	0xbd0ce8a7	-0.034401562
90	0xbcef5e4a	-0.029219765
91	0xbd6ec562	-0.058293708
92	0x3d89b9f7	0.06724923
93	0x3dbc73ce	0.092017755
94	0x3d8d788b	0.06907757
95	0xbcf89eba	-0.030349124
96	0xbd2c945c	-0.042133674
97	0xbcadb403	-0.021204
98	0x3d263a08	0.040582687
99	0x3d8d3275	0.068943895
100	0xbdbc4813	-0.091934346
101	0x3d259682	0.04042674
102	0xbda29de5	-0.07940272
103	0x3d35ad5f	0.044354793
104	0xbd593cbb	-0.053036433
105	0x3e0cf9d7	0.13767181
106	0xbc8929d5	-0.01674358
107	0xbd8a8fca	-0.06765707
108	0xbdfc18ef	-0.12309443
109	0x3da76a69	0.08174593
110	0xbe2a71e5	-0.1664501
111	0xbe5565cd	-0.20839615
112	0x3d271ad1	0.04079706
113	0xbda2841f	-0.07935356
114	0x3e52e8df	0.20596646
115	0xbdafaa01	-0.085773475
116	0xbd30f3ef	-0.043201383
117	0x3d4ff4aa	0.05077044
118	0xbdf641c7	-0.12024265
119	0x3e4636ce	0.19356844
120	0xbd9cb0ae	-0.076508865
121	0xbd91ee02	-0.071254745
122	0xbd68f294	-0.056871966
123	0x3cd0bfc4	0.025482066
124	0xbdbfbd5f	-0.093622915
125	0x3bd1227c	0.0063822847
126	0x3cc2a055	0.023758093
127	0x3d2626df	0.040564414
128	0xbdadc876	-0.084855005
129	0x3d209467	0.039204028
130	0xbe02284b	-0.12710683
131	0x3dfcb774	0.123396784
132	0x3d97c86b	0.074112736
133	0x3e494e3f	0.19658755
134	0xbe074092	-0.13208225
135	0xbe32d2e5	-0.17463262
136	0x3b1e9f50	0.0024203844
137	0xbdd8d470	-0.10587394
138	0x3c7dbfd4	0.01548763
139	0xbe37f856	-0.17965826
140	0x3e0a74cf	0.13521121
141	0xbe8a8053	-0.2705103
142	0xbe46973d	-0.1939363
143	0xbe46bf43	-0.19408898
144	0x3da07523	0.07834842
145	0xbd7e153a	-0.062031962
146	0x3d488e8b	0.048964065
147	0xbc3288ed	-0.010896903
148	0xbe46df4e	-0.19421121
149	0x3c2c5b2f	0.010519787
150	0x3d9e21c6	0.077212855
151	0x3e0b2659	0.13588847
152	0x3d596e6f	0.053083833
153	0x3d8bfc6d	0.06835256
154	0xbe28b04c	-0.16473502
155	0xbe2f49c9	-0.1711799
156	0x3d86e335	0.06586305
157	0xbd3b8b3b	-0.045787077
158	0xbdb35433	-0.08756294
159	0x3edca88d	0.43097344
160	0x3ddb172a	0.106977776
161	0xbc05c336	-0.008164218
162	0xbdcb6b10	-0.0993253
163	0xbe18ba98	-0.1491493
164	0x3e1c65ca	0.15273204
165	0xbcd65400	-0.026163101
166	0xbbcff00e	-0.0063457554
167	0xbdff78fd	-0.124742486
168	0xbe5e0987	-0.21683322
169	0x3b10b45c	0.0022080159
170	0x3e8776f9	0.26457956
171	0xbd1c5ba4	-0.038173333
172	0x3c8046e8	0.01565881
173	0xbda8709b	-0.08224603
174	0xbc71fd81	-0.014769913
175	0xbdca1f0b	-0.09869202
176	0xbe096691	-0.13418032
177	0xbe03d9d8	-0.1287607
178	0xbdbde16d	-0.09271512
179	0x3dde0eea	0.108426884
180	0xbd70aeee	-0.058760576
181	0xbdf97ee0	-0.121824026
182	0xbcc4336f	-0.023950307
183	0xbdda0f21	-0.10647417
184	0x3d990ddc	0.074733466
185	0xbe244769	-0.16042866
186	0xbcd3a54d	-0.025835657
187	0xbd92b1bd	-0.07162807
188	0x3e99ec26	0.3006298
189	0xbe33c98c	-0.17557353
190	0xbb4d44c9	-0.0031321517
191	0xbc13289e	-0.008981852
192	0x3baf352f	0.005346916
193	0xbc947318	-0.018121287
194	0xbe13dcad	-0.1443965
195	0xbe3120b4	-0.17297632
196	0x3e0426fa	0.12905493
197	0x3c2be477	0.010491482
198	0xbd1efc92	-0.03881509
199	0xbd824e33	-0.063625716
200	0xbe766c3e	-0.24064729
201	0xbd01b0f9	-0.031662915
202	0xbd7c7674	-0.061636403
203	0x3dcd4793	0.10023417
204	0x3df982b4	0.12183133
205	0x3c80aa68	0.015706256
206	0xbd6b5238	-0.057451457
207	0x3c881a40	0.01661408
208	0x3e3d1e09	0.18468489
209	0xbd2af656	-0.04173883
210	0xbdc1c729	-0.09461815
211	0x3df3729c	0.118870944
212	0xbd7aa725	-0.061194558
213	0x3bfd734e	0.0077346927
214	0x3de5baf5	0.112173
215	0xbde7fa1c	-0.113270015
216	0x3d899acb	0.067189775
217	0xbc0f3f1d	-0.008743075
218	0xbcea1d11	-0.028578313
219	0x3d8c4b20	0.068502665
220	0xbdd5e00c	-0.10443124
221	0x3caa4395	0.020784179
222	0xbdbf5f76	-0.093443796
223	0x3da1f940	0.07908869
224	0x3db73f4e	0.08947621
225	0xbe04544e	-0.12922785
226	0x3cd7db96	0.026349824
227	0x3d3aec35	0.04563542
228	0x3e019686	0.12655076
229	0xbd87ced8	-0.06631249
230	0x3da81ac7	0.082082324
231	0xbc0047a1	-0.007829578
232	0x3d04e79a	0.032447435
233	0x3cf837d8	0.030300066
234	0x3ccab099	0.024742411
235	0xbd0c160a	-0.034200706
236	0x3e03aa89	0.12858023
237	0xbe18eeba	-0.14934817
238	0x3daa5a95	0.083180584
239	0x3ce2d87b	0.027691117
240	0x3d22fbe5	0.039791007
241	0xbdda3c50	-0.10656035
242	0xbcfa8890	-0.030582696
243	0xbdad8583	-0.08472731
244	0x3899f224	7.340711e-05
245	0x3e27236d	0.16322108
246	0x3daefe5e	0.085446104
247	0x3e53d51b	0.20686762
248	0xbc8f7f8d	-0.017516876
249	0xb9fe1560	-0.0004846258
250	0xbd2903df	-0.041263457
251	0xbc9fcc8b	-0.019506713
252	0xbcc81a9f	-0.024426756
253	0x3d347e33	0.044065665
254	0xbc2e7f86	-0.010650521
255	0xbc5f826c	-0.013641935

conv2.bias f4 [32]
0	0xbd1f047c	-0.038822636
1	0x3e379716	0.17928728
2	0xbdc2ef38	-0.095182836
3	0x3ea0813c	0.31348598
4	0x3d9e3c46	0.0772634
5	0xbd8df296	-0.06931035
6	0xbd1b5c7e	-0.037930004
7	0x3d0242c9	0.031801973
8	0xbbbf19f0	-0.0058319494
9	0x3e8803bd	0.26565352
10	0x3d9f1011	0.07766736
11	0x3eae1d3a	0.34006673
12	0x3e6ecdad	0.23320647
13	0x3dc63c34	0.096794516
14	0x3dec7e82	0.11547567
15	0x3e4516bf	0.19246958
16	0x3c6b40f4	0.014358748
17	0xbcead4eb	-0.02866598
18	0xbe1ebbd8	-0.15501344
19	0xbd8d9476	-0.06913082
20	0x3dd65c16	0.10466783
21	0x3e06be4d	0.13158531
22	0x3d1e067e	0.03858041
23	0x3dc24295	0.09485356
24	0xbcb5d6da	-0.022197176
25	0x3dc5353f	0.096292965
26	0x3d3a06a2	0.04541648
27	0x3cae7164	0.021294303
28	0xbd576956	-0.05259069
29	0x3e1e8bf8	0.15483081
30	0xbdc9403f	-0.09826707
31	0x3c9bb21c	0.019005828

conv3.weight f4 [1, 32, 5, 5]
0	0x3dafbb01	0.0858059
1	0x3df97970	0.121813655
2	0x3e30f1a3	0.17279677
3	0x3e36b235	0.17841418
4	0x3e620938	0.22073829
5	0x3cafc743	0.02145732
6	0x3d5e758e	0.054311328
7	0x3d969f52	0.07354607
8	0x3dbf7aef	0.093496196
9	0x3ddcae46	0.107754275
10	0x3d29ca02	0.041452415
11	0x3d933fe7	0.07189923
12	0x3dba5da5	0.090998925
13	0x3dc3163d	0.09525726
14	0x3deab3b2	0.114600554
15	0x3cadd006	0.021217357
16	0x3d3de11a	0.04635725
17	0x3d760dd6	0.06007179
18	0x3d9b3d34	0.07580033
19	0x3db5f542	0.0888467
20	0x39baa1d0	0.00035597244
21	0x3d106758	0.035254806
22	0x3d7a6587	0.06113198
23	0x3da4874e	0.0803362
24	0x3dfd2ca2	0.12362029
25	0x3c33dc78	0.010977857
26	0x3ce959dd	0.028485233
27	0x3d7d2d56	0.061810814
28	0x3ca3e87c	0.020008318
29	0x3db050c5	0.086091556
30	0xbb9e7475	-0.00483566
31	0xbc280388	-0.010254748
32	0x3bb24ac5	0.005441042
33	0xbbd68612	-0.006546744
34	0x3cc7e72e	0.024402227
35	0x3c8606dd	0.016360695
36	0x3ce63183	0.02809978
37	0x3d420360	0.0473665
38	0x3cc038d9	0.023464607
39	0x3d78839f	0.0606724
40	0x3c6abbf6	0.01432704
41	0x3bcd9bc7	0.0062746736
42	0x3ca17bb2	0.019712303
43	0x3b92cfed	0.004480353
44	0x3d0fc71f	0.035102006
45	0x3c942b2e	0.018086996
46	0x3c948945	0.018131861
47	0x3d871ed6	0.06597678
48	0x3b901cff	0.004397988
49	0x3db6a36b	0.08917888
50	0xbe0afa7e	-0.13572118
51	0xbdd667bd	-0.10469005
52	0xbe1309d3	-0.14359216
53	0xbdfdffde	-0.124023184
54	0xbda9eddf	-0.082973234
55	0xbda7ca22	-0.08192851
56	0xbda41bb4	-0.080130965
57	0xbdb90642	-0.09034397
58	0xbda34d3d	-0.079737164
59	0xbd78bf54	-0.06072934
60	0xbdbc7be0	-0.09203315
61	0xbda67540	-0.081278324
62	0xbdcd46ab	-0.100232445
63	0xbdb13460	-0.08652568
64	0xbd860f5d	-0.06545899
65	0xbdb73163	-0.08944967
66	0xbda24b0d	-0.07924471
67	0xbdb32af6	-0.087484285
68	0xbd9dbe0c	-0.07702264
69	0xbd71ddb9	-0.05904934
70	0xbe2c16ce	-0.16805574
71	0xbe095e7a	-0.13414946
72	0xbe4db2a3	-0.20087676
73	0xbe2cae6e	-0.16863415
74	0xbded57a3	-0.11588981
75	0xbbbc5ae5	-0.00574814
76	0xbc015d8b	-0.007895838
77	0xbc3a8b06	-0.011385685
78	0xbc934999	-0.01797943
79	0xbcce5413	-0.025186574
80	0xbcb4fde5	-0.022093723
81	0xbcda0dbe	-0.02661788
82	0xbd2938bd	-0.041313875
83	0xbcec747d	-0.02886414
84	0xbd172a2a	-0.036905445
85	0xbca1963e	-0.019724961
86	0xbce0c480	-0.027437449
87	0xbd1142ba	-0.035464026
88	0xbcb6788c	-0.022274278
89	0xbd088d34	-0.033337787
90	0xbc6cc8af	-0.014452144
91	0xbc8a4e81	-0.016883137
92	0xbc9bdb8e	-0.01902559
93	0xbc211f1f	-0.00983408
94	0x3a8fdc1e	0.0010975634
95	0xbd29d9fd	-0.041467655
96	0xbd3b6599	-0.045751188
97	0xbda04540	-0.078257084
98	0xbd770d54	-0.060315445
99	0xbdb9477d	-0.090468384
100	0xbd8df1bd	-0.069308735
101	0xbdd4eeae	-0.10397087
102	0xbe12d237	-0.14338003
103	0xbdbddfee	-0.09271227
104	0xbe024ac7	-0.12723838
105	0xbcf56278	-0.02995418
106	0xbd4229af	-0.047403034
107	0xbd979609	-0.07401664
108	0xbd4cc30e	-0.049990706
109	0xbd6d7dc9	-0.057981286
110	0xbcffad5b	-0.031210592
111	0xbd6ac993	-0.057321142
112	0xbdb9a613	-0.09064879
113	0xbd907162	-0.07052876
114	0xbda9f64a	-0.08298929
115	0xbd1f28d5	-0.0388573
116	0xbd73ec72	-0.059551664
117	0xbdaa13f9	-0.08304591
118	0xbd862d79	-0.06551642
119	0xbd9f9ef8	-0.07793993
120	0xbd155f60	-0.03646791
121	0xbd9f318b	-0.077731214
122	0xbe024566	-0.12721786
123	0xbdb0e08b	-0.08636578
124	0xbdecc5e8	-0.11561185
125	0x3e6f31c2	0.23358825
126	0x3eb3bf5c	0.35106933
127	0x3ecae020	0.3962412
128	0x3ec3f4ae	0.38272613
129	0x3efa89a0	0.48933125
130	0x3da182b6	0.07886259
131	0x3e0c173f	0.13680743
132	0x3e3df610	0.18550897
133	0x3e528f79	0.20562543
134	0x3e7f36b7	0.24923216
135	0x3d9e290d	0.077226736
136	0x3e19848e	0.14991972
137	0x3e4b3fc5	0.19848545
138	0x3e4da7cf	0.20083545
139	0x3e715cbd	0.23570533
140	0x3d7c5283	0.061602127
141	0x3decb92a	0.11558755
142	0x3e30b2dc	0.1725573
143	0x3e2a67c6	0.16641149
144	0x3e49f210	0.19721246
145	0x3ded052c	0.11573252
146	0x3e43c80c	0.1911928
147	0x3e829d2d	0.2551054
148	0x3e5e6594	0.21718436
149	0x3e8cef59	0.27526358
150	0xbd17a435	-0.037021834
151	0xbd35b734	-0.04436417
152	0xbd85650c	-0.06513414
153	0xbc297df8	-0.010344975
154	0xbbdf6d5a	-0.0068184556
155	0xbd2d7c02	-0.04235459
156	0xbd3c37bb	-0.045951586
157	0xbd812d2d	-0.06307445
158	0xbce07860	-0.02740115
159	0xbd1067ce	-0.035255246
160	0xbd1f75c3	-0.038930666
161	0xbd2da8c5	-0.04239728
162	0xbd6fb52c	-0.05852239
163	0xbcb3ae96	-0.021933835
164	0xbc38cb06	-0.011278873
165	0xbccbe5fb	-0.024889937
166	0xbd297f7f	-0.041381355
167	0xbd4fe628	-0.050756603
168	0xbcd6bacc	-0.026212119
169	0xbcd87647	-0.026423587
170	0xbe008b40	-0.1255312
171	0xbe0e2c17	-0.13884006
172	0xbe2f80cc	-0.17138976
173	0xbe002f5b	-0.12518065
174	0xbde065b8	-0.10956901
175	0xbd2cff20	-0.042235494
176	0xbd362b96	-0.04447516
177	0xbd8e5855	-0.06950442
178	0xbd2d4ace	-0.042307667
179	0xbd0c3dba	-0.034238555
180	0x3c0661c8	0.008202024
181	0x3c3bf3ed	0.011471731
182	0x3c9eb31f	0.019372521
183	0x3ca9c3eb	0.020723304
184	0x3c9ce9fe	0.019154545
185	0x3cfdd092	0.030983243
186	0x3c820ed0	0.015876204
187	0x3c944013	0.01809696
188	0x3c974536	0.01846562
189	0x3cd01433	0.025400257
190	0x3c4f9ef4	0.012672175
191	0x3c7d8f1c	0.015476014
192	0x3c8d8d8c	0.017279409
193	0x3c690f78	0.014224879
194	0x3cafde98	0.021468446
195	0x3da3834b	0.079840265
196	0x3d79b952	0.06096775
197	0x3d8f309e	0.06991695
198	0x3d7657c6	0.0601423
199	0x3d914001	0.07092286
200	0xbd5c4738	-0.053778857
201	0xbdab9202	-0.08377458
202	0xbd7487c0	-0.059699774
203	0xbc9416ac	-0.018077217
204	0xbc8cb855	-0.01717774
205	0xbd2063cb	-0.03915767
206	0xbd8d0632	-0.06885947
207	0xbd50f116	-0.051011167
208	0xbcd4bed7	-0.025969906
209	0xbc8ed306	-0.017434608
210	0xbdaeb653	-0.08530869
211	0xbdbbd958	-0.091723144
212	0xbd8f1171	-0.069857486
213	0xbd1ad891	-0.03780419
214	0xbc8e076d	-0.017337525
215	0xbd830fd6	-0.06399505
216	0xbda51564	-0.080607206
217	0xbd986644	-0.074413806
218	0xbd27b862	-0.040947326
219	0xbcc91904	-0.024548061
220	0xbdcc966e	-0.0998963
221	0xbdfd7b9e	-0.12377094
222	0xbdc49a50	-0.09599745
223	0xbd31301b	-0.043258768
224	0xbd2ab9ee	-0.041681223
225	0xbd8efd8f	-0.06981956
226	0xbd5f9736	-0.054587565
227	0xbd93186a	-0.07182391
228	0xbd433a5e	-0.047663085
229	0xbdb35a9b	-0.08757516
230	0xbca354da	-0.019937921
231	0xbce0863d	-0.02740776
232	0xbd13d3d0	-0.036090672
233	0xbce9399f	-0.028469859
234	0xbd125661	-0.03572691
235	0xbd2e6025	-0.04257216
236	0xbd03d89d	-0.032189
237	0xbd2c8f2a	-0.04212872
238	0xbd0c32e0	-0.034228206
239	0xbd4b7610	-0.04967314
240	0xbcf546f5	-0.029941062
241	0xbcdc7cac	-0.026914917
242	0xbd0a4392	-0.033755846
243	0xbce28a80	-0.027653933
244	0xbd052dd3	-0.032514405
245	0xbc88b69f	-0.016688643
246	0xbc3def57	-0.011592708
247	0xbc126722	-0.008935722
248	0xbb85247c	-0.004063187
249	0xbc88c951	-0.016697558
250	0xbd75e814	-0.06003578
251	0xbd55c190	-0.05218655
252	0xbda06632	-0.07831992
253	0xbd741049	-0.059585843
254	0xbd15274d	-0.036414433
255	0xbd641fc5	-0.05569436
