ModelZoo/models/my_model/SRCNNpara_1218_rx_1sir_-10_complex_channelnet.pth (torch_old, 30432 bytes, 10 tensors)

conv1.conv_r.weight f4 [32, 1, 9, 9]
00000000: e4d7 3bbd bfe5 1cbe 8cb9 cc3d 6320 4e3e
00000010: 2c8f 2c3e 5bed 4d3d c58d 51be 2dab 44be
00000020: 2410 b53d 19ca cf3c 3650 19bd 4bc7 163e
00000030: cd64 623d 954d a13d 0767 123e 635c 4cbe
00000040: 3742 42be 0f7d 78bd 0dcf 453d 1ada c4bd
00000050: e463 19bd d640 a2bd eb1b a93c 63db 413d
00000060: 0efb bbbd 7cd5 01be ae19 b9bd eebf 62bc
00000070: 8c60 073e f7fe cfbd 090c 78be 1841 1ebe
00000080: ff3a 273e cc60 213e 0dd4 0c3e 30af f73d
00000090: 0c3f 133e 2fb5 1fbc 4a89 c73d 6b79 14be
000000a0: 17a3 c6bd d89b d93c 8df7 953d 3f8a 0e3e
000000b0: dd77 cf3d 12a3 babd f909 50bc 80b5 e63c
000000c0: 915e 573d 5aae 36bd 3440 cd3b 9339 2abd
000000d0: 9819 a53d 26a8 f9bc ce08 edbd 74a7 a1bd
000000e0: c3f0 123e 4283 f43d de2f 313d c9a9 59bd
000000f0: 400a cd3d afaf 813d 423f 00be 38dc bbbc
00000100: 5cc4 19bd e8ad 30bd e561 f43b 079d 893c
00000110: 5870 febd 2d23 a4bd 334e 9abd 8a97 43be
00000120: 341d 8a3e 0b31 913c dc07 24be 0bee 37bc
00000130: 52c9 debc b161 5abb 652a 613d 7510 2c3c
00000140: e990 503e b351 073d 4046 3bbd e150 a0bd
00000150: 6e0a 803c d99d b0bc 7bcf ba3d c668 6b3c
00000160: ae63 93bc f93c 16bd c58d 353b d55f c43d
00000170: d98a cf3c 16f6 15bb a4fa a23b dd04 91bc
00000180: fc93 0abd 7b30 ab3b 1011 b4bd 3922 13bd
00000190: 1db4 91bc b894 cd3d 12cb a7bd 09b6 dcbd
000001a0: f7e8 853d eef9 633d 6b22 193e 8bb0 f3bd
000001b0: 1631 59bd c7b9 6d3d b40b 7cbd 153a 09bd
000001c0: 4f43 13bd 0c4d e7bd 702d fa3c 76fe 4bbb
000001d0: 3ac6 403e 7c94 3fbb a3a9 9bbc 0276 dd3c
000001e0: def7 593c 5f1c fe3d 1a78 b23c 6823 7d3d
000001f0: ba00 d7bd 3a71 50bd fa7e cf3d fa98 d9bc
00000200: bed4 e23b 3db7 cf3d 45f2 093d 61cd 043c
00000210: 6c01 59bd 030a 0cbd 4b98 143d 8777 ecbc
00000220: dc29 12bd 03f3 c7bd 4672 4fb9 cbac 53bd
00000230: c174 6ebd 082f 2d3d dabe 17be b6ff 97bc
00000240: aab5 ab3c 6d82 85bd b9e4 54bc 010f 563b
00000250: 82fd 06bd f070 d53c f9ee c23a 5424 553d
00000260: 3ddf 823d 6316 6e3c 60bd dc3d 2ea3 4f3b
00000270: 181b 823c 6004 2bbb 85ec e7bb 8d67 203d
00000280: c2a7 883b 6809 8fbc 90d4 793e d5c0 8d3d
00000290: e477 2dbd 5b58 8dbd a41e eb3c 44f7 2cbd
000002a0: 7734 9b3d 13e2 7d3d 69c5 99bc e25a b93d
000002b0: 26b8 5ebd b838 e5bd 9878 96bd 83c8 af3c
000002c0: 22b5 c7bd 0a7d 7e3d d6aa 2b3d e55d 2abd
000002d0: b663 31be 3bb2 22be 9ff9 f83d f285 413d
000002e0: ad60 353e bb99 9fbd 4938 fabc 4b42 95be
000002f0: 966e 84bd 652b 68be 68d6 893d 2f9a 713d
00000300: 8c84 e5bb 8c96 42bb 6e1d 9abd 9021 4b3e
00000310: 77d3 173d c716 a23d 440f 40be c9f0 f73d
00000320: 441c 9f3d 4848 383d 1e96 a7bd 1e37 9dbc
00000330: d2e0 eb3d a6b5 e33a 277a 113e af76 7b3d
00000340: 90fa 563d b880 d03b 2f01 87bd fd77 183d
00000350: bbd7 edbd beea 7b3c a24e a33c 83ac 43bd
00000360: 7319 6f3d 5761 6abd 504c 683c 799f ecbd
00000370: 5445 ab3d 5e47 5abd b751 843d 8390 d3bd
00000380: acf8 53bd 5eff 6b3d a463 b13d 33dd 88bd
00000390: f821 923c 5379 1c3e 72fe 073d e108 6e3d
000003a0: 5bd7 d8bd 42eb 3cbd aee4 ccbd 8663 95bd
000003b0: 0adc e73d d280 bbbd 8af2 783d 3f93 d1bd
000003c0: eec6 99bc 6ac9 5a3d 2bf6 f83d fe4d 183d
000003d0: c6cf 81bd 4f8e cfbb d82a d0bd 8223 b5bd
000003e0: 4d0b 44bd 3fa5 143c 97ab 173d 2025 a53b
000003f0: 0e42 0ebe cc1b ae3d 0ecc 0d3d 56a4 2b3e
-0.045860186 -0.15322016 0.09996328 0.20129542 0.1685149 0.050275188 -0.20464237 -0.19205923
0.08840969 0.025364922 -0.03743001 0.14724462 0.055271912 0.07876126 0.14297114 -0.19957118
-0.18970571 -0.06066614 0.048293162 -0.09611912 -0.03744878 -0.07922523 0.020643195 0.047328364
-0.09178744 -0.12679094 -0.09038101 -0.013839705 0.13220423 -0.101560526 -0.24223341 -0.15454519
0.16331099 0.15759581 0.13752766 0.12093961 0.14379519 -0.009747787 0.09742983 -0.14499442
-0.09699076 0.02656357 0.07322607 0.13919924 0.10130284 -0.091131344 -0.01269769 0.028162718
0.05258042 -0.04459987 0.006263757 -0.041558813 0.08061522 -0.030475687 -0.11573945 -0.07893267
0.14349656 0.11939098 0.04325854 -0.053140435 0.10011721 0.06332337 -0.12524131 -0.022932157
-0.03754078 -0.0431346 0.007457959 0.01679851 -0.124237716 -0.08014522 -0.075344466 -0.19100776
0.26975405 0.01772358 -0.16018623 -0.011226187 -0.027195606 -0.0033322389 0.05497207 0.010501971
0.20367779 0.0330369 -0.045721292 -0.078279264 0.015629973 -0.021559643 0.09121605 0.014368242
-0.017991867 -0.03667924 0.002770291 0.09588591 0.025334762 -0.0022882274 0.0049737263 -0.017702514
-0.033832535 0.005224285 -0.08792317 -0.03592131 -0.01778608 0.100381315 -0.081930295 -0.10776908
0.06538575 0.055658273 0.14954536 -0.11898907 -0.053025328 0.0580385 -0.0615346 -0.033502657
-0.035952862 -0.112939924 0.030539244 -0.0031127012 0.18825617 -0.002923279 -0.019001788 0.02703381
0.013303725 0.12407755 0.021785785 0.061801344 -0.104981855 -0.05088923 0.10131641 -0.026562203
0.0069223335 0.10142372 0.03367831 0.008105607 -0.05297987 -0.034189235 0.03627805 -0.028865589
-0.03568445 -0.09763148 -0.00019783629 -0.05167846 -0.058216814 0.04228118 -0.14818898 -0.01855455
0.020960648 -0.06519017 -0.012993985 0.0032662752 -0.032956608 0.02605483 0.0014872245 0.0520366
0.063902356 0.014531705 0.10778308 0.0031682956 0.01588206 -0.0026095137 -0.007077756 0.039161254
0.004170389 -0.01746054 0.24397492 0.069215454 -0.042350665 -0.06901618 0.028701134 -0.042228
0.07578366 0.06198318 -0.01877089 0.09050538 -0.054374836 -0.11192459 -0.0734722 0.021457916
-0.09751345 0.062130965 0.04191097 -0.04159345 -0.17323193 -0.15888302 0.121569864 0.04724688
0.1771266 -0.07792994 -0.030544417 -0.2915214 -0.06466405 -0.22672804 0.06730348 0.05898493
-0.007004326 -0.0029691784 -0.075251445 0.19837022 0.037066903 0.07914501 -0.18755823 0.12106473
0.07769063 0.044990808 -0.081829295 -0.019191321 0.115174904 0.0017372861 0.14206754 0.061392482
0.05248505 0.0063630007 -0.06592023 0.037223805 -0.11613413 0.015375791 0.019934956 -0.047771942
0.05837388 -0.057221737 0.014178351 -0.115538545 0.08362833 -0.053290717 0.06460898 -0.10330298
-0.051750824 0.057616584 0.08661583 -0.066828154 0.017838463 0.15280657 0.033201642 0.058113936
-0.10587951 -0.046122797 -0.10004555 -0.07294373 0.11321266 -0.0915543 0.06077818 -0.10233163
-0.018771615 0.05341474 0.12156328 0.037183754 -0.06338458 -0.006334103 -0.10164422 -0.08844663
-0.04786234 0.009072601 0.037028875 0.005039826 -0.13892385 0.085013956 0.03461843 0.16761908

conv1.conv_r.bias f4 [32]
00000000: 8135 bbbd 5a4b f63d 1dce 863c a92f 1dbd
00000010: c17a 2c3b 669a 2ebd aaef 5b3d 6d5f 6ebd
00000020: a604 b8bc 5d13 b63d a91a e1bc f9b9 bbbb
00000030: 0183 e73e 25ea ba3c 186a edbb 1e78 17be
00000040: 6270 c03e 7dcf a03d f29a 42bb be04 333d
00000050: 4092 26bd ce53 123c 24f8 a23e 3260 143d
00000060: c673 c8bd 9dee b63c 75ff eb3d ceaf da3d
00000070: fea8 ccbc 24eb 113f 665c 8c3d 4bba 803c
-0.091410644 0.12026091 0.016455704 -0.03837553 0.0026318284 -0.042627715 0.05369536 -0.058196474
-0.022463154 0.08890412 -0.027478533 -0.005728957 0.45217136 0.022816727 -0.0072453134 -0.14791915
0.3758574 0.07852075 -0.0029694405 0.043705694 -0.04066682 0.008931113 0.3182994 0.03622455
-0.09787707 0.022330577 0.11523334 0.10678063 -0.024982926 0.5699942 0.06853561 0.015713831

conv1.conv_i.weight f4 [32, 1, 9, 9]
00000000: 067a 183d 69b8 aebc 35ea 6abc 8e74 663c
00000010: 517a 933c e0ab ffbd 1fe1 2f3d e8c7 563c
00000020: fa69 2bbd 3568 6fbd 7b79 9ebc 98ca d8bd
00000030: c276 e73d e60d 8e3d 2e64 be3c 5b26 2c3d
00000040: a15d b0bd 50ce 95bc 4d91 7fbc 6f36 2c3d
00000050: 8b4f 983d 3c53 5dbd 36d1 613d 0d51 783d
00000060: 91b1 84bd 13eb 993d 3941 03bb bfb9 ebba
00000070: 7fde b0bd 52e4 1fbc cefe 81bb 2425 77bd
00000080: b604 63bd 5d5f 79b9 b2b6 ae3d 4f9d de3d
00000090: b36e 8fbc f95c 983d bc28 4cbc 8100 5abc
000000a0: 3d61 093d b3e6 623d af7a a1bc 9736 02be
000000b0: 3f15 0cbe 1188 59bd 3ed5 c93d f740 2e3d
000000c0: 642c 5abc 28a2 9fbc 54a0 9d3d a1aa 36bd
000000d0: 2d62 1fbd d313 e03d 3540 853c 4f4a 7e3d
000000e0: c446 ffbc 4622 2cbd 9aea d03c b1a1 8a3d
000000f0: 8b41 37bd 7820 6a3c 3361 e43c e7eb 82bd
00000100: 98fa 10be 5ceb 303d ee3d 43bd 793f 7ebd
00000110: bf72 193d 0ab1 973b d131 4ebb 17af b2bd
00000120: e25a c13d 32f0 263d b836 7ebb 9e45 593d
00000130: cc54 4bbd 8443 4d3c cecb 2ebd b58e c83d
00000140: f6e0 99ba 13e7 703c ebbc 3abe 5905 c2bd
00000150: 499e 363e b06b 163e b5ec ecbd e578 12be
00000160: e35a 863b 2e6c ecbd 7d20 863d 6681 533c
00000170: 38ee 3a3d 85fa 2c3e 8f08 883e 679d b33d
00000180: 904e bebd 7f01 c7bd 6b4f 7ebd c75f c5bd
00000190: 3bb0 55be ffba dc3d cce4 983e 9a16 cc3e
000001a0: e80e c83d c342 583c f6c2 3ebd 1c7a 2ebe
000001b0: 878a 543c 32ca fa3d c4d2 0fbe 23b0 79be
000001c0: ca9f d83d 69a0 a5bd 95fd 4e3e d72b b23d
000001d0: d441 bb3d 44a9 1b3e 8dcf 153e cf64 01be
000001e0: fc7d bfbe 28c5 c4be b97b 4bbe 86ef dcbc
000001f0: 4a4c 303e 777f 8bb8 cdda 9bbc d109 a9bd
00000200: d190 063e bd0b cd3b 0a39 87be 8942 11bc
00000210: 207c 803c fae0 9fbb 74b7 54bd 918b 15be
00000220: 146e babc b6f9 f43c ead0 0d3e 42e7 983d
00000230: 3610 debb b061 6f3c 1aae dfbd 9fa0 f9bb
00000240: 0726 853d f38f 7e3c 9987 7f3d 8fa7 4f3e
00000250: 52d9 0b3e c8de 043e 66bd 723d 97f2 853d
00000260: 6461 da3d 247f afbd 9371 a73d 6970 efbd
00000270: 4fa7 dcbd e76c 35bc 30c7 1cbe 9f8b 90bd
00000280: 23e0 be3d a452 20be 35ee 033e afa0 eb3d
00000290: 4d5c 86bd b73b 573c dbfd 06be d9f8 c53d
000002a0: f153 683e 60f6 4ebd 0fde 5fbc 0bb7 b5bd
000002b0: a173 a9bb 3dcd 77bd 6c53 a93d 18ec cebc
000002c0: beab 883d 8ef2 a4bb 6b43 29be 6a12 08be
000002d0: 69d0 b9bd 11f5 603d edde cbbc afbe 4e3d
000002e0: ba72 b4bd 93bb c63d 1cfc bc3c 0dc9 293c
000002f0: 18e4 4d3d 0448 8cbb 62ba f3bd 9703 20bd
00000300: 56c0 79bd c413 763d 7404 633c 40e5 46be
00000310: 4184 343d e650 883d 4b36 133e 8674 dabc
00000320: 5636 ecbc 3ff7 f53d ae5c 293e c4de 15bd
00000330: a561 1bbc da37 5e3d 858f dc3d d86f ec3d
00000340: 4c29 be3d 6ad0 793d 9b95 a5bd b74a a83c
00000350: c294 eebd bf29 eb3d a203 0fbd 0e90 79bd
00000360: 5cbe 89bd c89d d4bd 3cf2 17bd e592 79bd
00000370: 9988 293d dd39 5dbe 8911 603e 05c9 b4bd
00000380: f723 10bd f363 babd 613e 7abd 9dec 06bd
00000390: cd62 123e b812 653d 9324 6cbe e9e4 0e3e
000003a0: d256 b7bd 323b 3dbd 53a2 233e b0ca a3bd
000003b0: 6b31 9d3d 9ac6 823d 7f4d 67bd 0b0c 1fbe
000003c0: 60ab 0d3e f243 4d3d 00c2 b43d b007 ddbb
000003d0: 9c42 2a3c 7e1f ddbc 7600 eabd 85fb d6bc
000003e0: f8c0 15bd 9b79 c3bd d26d cebc 91fc e1bc
000003f0: a3f9 2d3d a4a9 31bd 5cae 9d3d f28c 323e
0.037225746 -0.021328168 -0.014338066 0.014065875 0.018002661 -0.124839544 0.0429393 0.013109185
-0.041849114 -0.05844899 -0.019345036 -0.10585517 0.11301948 0.06936245 0.023241129 0.042028766
-0.08611608 -0.018286854 -0.015598607 0.0420441 0.074370466 -0.054034457 0.05513116 0.06062417
-0.064791806 0.0751554 -0.002002789 -0.0017984434 -0.08636188 -0.009759026 -0.0039671427 -0.060338154
-0.055424415 -0.00023782016 0.0853094 0.10869848 -0.01750884 0.07439608 -0.012460884 -0.013305784
0.03354 0.055395793 -0.01971182 -0.12716137 -0.1367998 -0.05310828 0.09855126 0.042542424
-0.013316248 -0.019486502 0.07696596 -0.04459632 -0.038911987 0.10941281 0.016265968 0.062082585
-0.031161673 -0.042024873 0.025502492 0.067691214 -0.04474024 0.014289968 0.02787838 -0.06392651
-0.14158094 0.043193206 -0.047666483 -0.06207225 0.037462946 0.004629259 -0.0031462798 -0.08724802
0.09441163 0.04075641 -0.003878994 0.053044908 -0.049641415 0.012528304 -0.042674832 0.09792844
-0.0011740017 0.01470353 -0.18236129 -0.09473676 0.17833818 0.14689517 -0.11568586 -0.1430393
0.00410019 -0.11544071 0.065491654 0.012909269 0.04563734 0.1689244 0.2656903 0.087702565
-0.09292328 -0.09717082 -0.062087458 -0.09637409 -0.20868008 0.10777854 0.29862058 0.39860994
0.09768468 0.013199511 -0.046572648 -0.17038769 0.012972481 0.12245597 -0.14045244 -0.24383597
0.10577352 -0.080872364 0.20213921 0.08699768 0.09143415 0.15201288 0.14629956 -0.12636112
-0.37400806 -0.38431668 -0.19871415 -0.026969682 0.17216602 -6.651779e-05 -0.01902523 -0.082538255
0.1314118 0.006257503 -0.26410705 -0.008865961 0.015684187 -0.004879114 -0.051932767 -0.14604022
-0.022757567 0.029904228 0.13849226 0.07465984 -0.006776835 0.014610693 -0.10921879 -0.0076180245
0.06501394 0.01553725 0.062385175 0.20278762 0.1365712 0.1297561 0.059262656 0.06540411
0.10663107 -0.08569172 0.081759594 -0.116913624 -0.10774099 -0.011073328 -0.15310359 -0.070578806
0.093200944 -0.15656525 0.12883838 0.11505257 -0.06560574 0.013136796 -0.13182776 0.096666045
0.22688271 -0.05052793 -0.013663783 -0.08872803 -0.0051712547 -0.060498465 0.082678646 -0.025259063
0.06673382 -0.0050337976 -0.16529624 -0.13288274 -0.09072954 0.054921214 -0.024886573 0.05047482
-0.08810945 0.09703746 0.023069434 0.010362876 0.050266355 -0.004281046 -0.11900784 -0.039065924
-0.06097444 0.060077444 0.013856042 -0.1942339 0.04407144 0.06656055 0.1437618 -0.02666689
-0.028834503 0.12010049 0.1653926 -0.0365894 -0.0094837295 0.054252483 0.10769562 0.1154477
0.092852205 0.060989775 -0.080851756 0.02054344 -0.11649467 0.11482572 -0.034915574 -0.060928397
-0.06725761 -0.10381657 -0.037096247 -0.060931105 0.041390035 -0.21604104 0.21881689 -0.08827404
-0.03519055 -0.09101095 -0.061094645 -0.032940496 0.14295502 0.055926055 -0.23060827 0.1395451
-0.089521065 -0.04619903 0.1597989 -0.07997644 0.07675441 0.063855365 -0.05647039 -0.15531938
0.13834906 0.050113626 0.08826065 -0.006745301 0.0103918575 -0.026992556 -0.11425869 -0.02624298
-0.036560982 -0.09544679 -0.02519885 -0.027586253 0.0424744 -0.043374673 0.07699272 0.17436579

conv1.conv_i.bias f4 [32]
00000000: c0f4 453c 03e6 d7bc be5c 023c 62b7 7dbd
00000010: 298d ecbb ead8 663d a3be 53bd 2d30 97bc
00000020: 7b24 8fbc fa4f 213c 3372 943c 09f5 c73a
00000030: cba1 ae3c 2ac9 803c 8ae6 f53c 1abc 20bd
00000040: 9963 3bbd 4427 93bc 0845 43bd 77f5 913c
00000050: 96a0 0a3c 3854 64bd a2a5 7abd f741 e2bc
00000060: 6916 1cbc aab9 8c3c e62e ac3c da68 703d
00000070: 1348 873c 0b2b 0abd 1cc0 8b3c 8a02 0b3c
0.012082279 -0.026354795 0.007956682 -0.061942466 -0.007218976 0.05635921 -0.051695477 -0.01845559
-0.01747345 0.009845728 0.01812086 0.0015255521 0.021317383 0.015720922 0.030017156 -0.039241888
-0.04574928 -0.01796306 -0.047673255 0.017817242 0.008461138 -0.05574438 -0.061193116 -0.027619345
-0.009526827 0.017178375 0.021018457 0.058693744 0.01651386 -0.033732455 0.017059378 0.008484492

conv2.conv_r.weight f4 [16, 32, 1, 1]
00000000: 3f9e 06be fd89 123d 9037 05be 5ef9 26be
00000010: 1108 3ebe 7a4c 4fbd 496d 1abd a30a 803d
00000020: de9f 703e 0d6f 2c3d d612 adbd 7ce6 f2bd
00000030: 741f 9ebc 9476 bbbd 2b66 b9bc 9e0a b13d
00000040: f1ad 5c3e e307 4dbe de20 14be 20bf 963e
00000050: 6f46 19bd 6c93 083e d5d5 4abd ac15 aabb
00000060: d28f 363e 21fe 923d ca7f 6fbd 20e4 693c
00000070: f3d4 a3b9 f693 a3bd 8e2c 2ebd d126 5d3e
00000080: f2f2 71bd b257 6bbe b29b e93d 5f2e cfbb
00000090: c77b 783d 1989 34be efa1 f4bd 9980 8e3e
000000a0: 11f2 2f3d 4663 503e 4cf0 03be 9117 42be
000000b0: 872e aa3d 1ed6 9b3d 766c 46be af62 433d
000000c0: 337b c23c dc52 333e 87a8 093e bcf6 44be
000000d0: 2476 4cbd 0bb7 2cbe e524 c3bd 2e16 843e
000000e0: 31fc 0cbe 1125 7d3e b37f 38be ffb3 42be
000000f0: c082 8c3d fa89 81bd 5796 d23d c559 513e
00000100: 78bc febd ddcf babd 3f62 3c3e 6e4b b33e
00000110: 6685 ef3e d63e 4f3e 0b6f a2bd 4d74 11be
00000120: 2bca f2bd abee 893d f957 77bd 0963 e3bd
00000130: 6e84 88be d82c 67bb d067 e2bd 4ceb e0bc
00000140: c4a0 543d fef3 b7bc 023a 973e 4bb6 89be
00000150: 061f cabd 1bb6 2d3c b466 e33c a90e bfbd
00000160: 63c8 e4bd 6536 d3bd 6396 8abe 61c0 81bd
00000170: 9aa4 a53d 0d86 25be 5b5c 023e ddd8 21be
00000180: 4908 d0bc 1858 d5bb 3ab1 5ebd b019 92bd
00000190: 181b 2cbe 7ea9 9b3b 281d 193d 0d56 353d
000001a0: ea51 9a3e daad b6bc 9055 e2bd 2b02 71bd
000001b0: 37bf 19be 16ba 433e a029 23be 0e26 08be
000001c0: 2764 b43c 436b 863e d223 86be d0a8 e73d
000001d0: 6eb0 673d baff 7ebd 7df6 6d3d 1e05 7a3e
000001e0: f8e4 1e3e 074a 663d 88b5 083e f6d1 88be
000001f0: da78 b8bd 5665 ae3b f468 80be a1c1 b43d
00000200: e574 5bbe d54b 9cbd 6c6b 0ebe 0f15 38bd
00000210: 6cd1 74be 8cb0 a13b cf9d 173e 5af7 e9bd
00000220: 7491 babd dcc9 73be daa3 19be 7883 1abe
00000230: 51b5 4ebd bd2b 26bd 8434 ab3e 740c 133c
00000240: 812d 903d 64b1 2d3e 3648 6cbe c586 163d
00000250: 0dad 3cbc 54ae 97b9 4add 1ebe f13d 52bd
00000260: aaba 0d3e 8e2c 17bd c75b 8c3d 082e 483e
00000270: 6926 d6bb f07b 803c 0d04 cfbe 814b be3a
00000280: 6c2c 153d a53a 983e ce21 223e c8da a4bd
00000290: 9cf9 94bd 1901 83be b69c 183d 0e3f aabd
000002a0: 6a17 5ebe 44aa 273d 4ad3 523e 6902 bc3e
000002b0: 5318 a53d 7744 793e 9ea8 a9bd 05ee 203e
000002c0: 5e0a 8abe fb6c 82bd 3449 a4bc 801f 4fbd
000002d0: 57f6 f5bd 8f95 47be a877 acbe b51c 3bbe
000002e0: 5491 31be b357 f7bd abfc 783e f923 10bd
000002f0: df08 dd3d efb0 8b3d 9e4c c3bd 277b 2ebe
00000300: 2c36 163e eff6 863e babd b9bd b6fe 6dbd
00000310: 100a d8bc adb3 1bbb b3df 80be 4026 f4bb
00000320: 578d 9cbd c38c 1abd 1d77 e73e 2507 893e
00000330: 2fc0 bc3c 30f7 bdbe bd1e 05be 3519 933e
00000340: c20b 07bd 729d cc3d ea25 12bd 5ed1 ad3d
00000350: 5df1 c13d 8bbb a9bd cd2c 56bd 3a8b ba3d
00000360: b2da dabd af37 ccbd b2fd 83be 09b4 65bd
00000370: e0b1 eabd a927 d9bd ec12 0f3c 4d3a 39bd
00000380: 7631 3bbe f783 9cbd 153d 763e b6b2 0a3f
00000390: ba6e bf3e c44f 43be dea4 d9bd 22f0 0fbe
000003a0: f67d cebd 52c2 c53b 2b1f 1cbd f288 14be
000003b0: 3604 273e 3e82 7abd 353d 76bd 227b 26bd
000003c0: 430e 7a3d 2b95 55bd e595 8f3e a992 99be
000003d0: 74e6 d53c 92b9 d63d 18ff a1be 94d8 33be
000003e0: 1953 13be 3f4a 36be 0954 69be d3e4 aebd
000003f0: fbe1 1cbd 1134 eb3d e44e 433e bcc1 d6bd
-0.13146304 0.035776127 -0.13009477 -0.16306064 -0.18557765 -0.050610043 -0.03770188 0.06252029
0.23498484 0.042098094 -0.08450858 -0.11860368 -0.019302107 -0.09153476 -0.022631725 0.08644603
0.21550728 -0.2002254 -0.14465663 0.29442692 -0.037420686 0.13337487 -0.049520332 -0.005190572
0.178283 0.071773775 -0.05847148 0.014275581 -0.00031248442 -0.07987206 -0.04252296 0.21596839
-0.05906958 -0.22982672 0.1140665 -0.0063226665 0.06066492 -0.17630424 -0.11944949 0.27832487
0.042955462 0.2035037 -0.12884635 -0.18954302 0.08309656 0.07609199 -0.19377312 0.047701534
0.023740387 0.17512077 0.13443194 -0.19234747 -0.049917355 -0.168667 -0.095285214 0.25798172
-0.13768078 0.24721171 -0.18017463 -0.19013976 0.06860876 -0.06325145 0.10282581 0.204444
-0.12438291 -0.09121678 0.18396853 0.35018486 0.46781462 0.20238814 -0.07931336 -0.14204521
-0.11854967 0.067349754 -0.06038663 -0.11102874 -0.26663536 -0.0035274532 -0.11054957 -0.027455948
0.05191113 -0.022455212 0.29536444 -0.2689689 -0.098691985 0.010602499 0.027758934 -0.09328968
-0.11171033 -0.10313109 -0.2706786 -0.063355215 0.08088036 -0.16164418 0.12730543 -0.15805383
-0.025394576 -0.0065107457 -0.054368235 -0.07133806 -0.1680721 0.0047504297 0.03738132 0.044271518
0.3014062 -0.022299696 -0.11051476 -0.05883996 -0.15014349 0.19113955 -0.15933847 -0.13295767
0.022020413 0.2625371 -0.26199204 0.11311495 0.05656474 -0.0622556 0.058096398 0.24416015
0.15517032 0.05622294 0.13350499 -0.26722687 -0.090074256 0.005322139 -0.25080073 0.08825994
-0.2143131 -0.07631651 -0.13908166 -0.044941958 -0.23908013 0.004934376 0.14806293 -0.11424132
-0.09109774 -0.23807472 -0.1500391 -0.15089214 -0.050465886 -0.040569056 0.33438504 0.008975137
0.07039929 0.169622 -0.23074421 0.03674962 -0.011515868 -0.0002893085 -0.15514103 -0.051328603
0.13840738 -0.036907725 0.06853443 0.1954881 -0.0065353406 0.015684098 -0.40432778 0.0014518352
0.036419317 0.29732242 0.15833208 -0.08049542 -0.07274172 -0.25586775 0.037258826 -0.08312808
-0.2168862 0.040933862 0.20588413 0.3672059 0.0806128 0.24342524 -0.08284114 0.15715797
-0.26961035 -0.063684426 -0.020054437 -0.05056715 -0.12009876 -0.19490646 -0.3368504 -0.1827267
-0.17340595 -0.12077274 0.24315135 -0.035190556 0.10792708 0.06820857 -0.09536098 -0.17039166
0.14669102 0.2636027 -0.090693906 -0.05810424 -0.026371986 -0.0023758218 -0.2517067 -0.007450849
-0.07644146 -0.037731897 0.45208064 0.26763263 0.023040859 -0.37102652 -0.13000007 0.2873017
-0.032970197 0.09990968 -0.03568069 0.08487199 0.094698645 -0.08287724 -0.05228882 0.091085866
-0.10686244 -0.09971558 -0.25779492 -0.056079898 -0.11459708 -0.10603268 0.008732539 -0.045221616
-0.18280587 -0.07642358 0.24046738 0.5417894 0.37389165 -0.19073397 -0.10627149 -0.14056447
-0.10082619 0.0060351277 -0.03811566 -0.14505365 0.163102 -0.061159365 -0.060116965 -0.040644772
0.061048757 -0.05214421 0.28044048 -0.29994705 0.026110865 0.104846135 -0.31639934 -0.17563087
-0.14387168 -0.1780176 -0.22785963 -0.085397385 -0.03830145 0.1148454 0.19073063 -0.10486171

conv2.conv_r.bias f4 [16]
00000000: c5e3 e53d 763a c33d 034c 813e 27f8 5f3e
00000010: 95a9 403e f294 3f3e f25f 0a3e f9ec 333d
00000020: d501 823e c56d f93d b985 2c3e 16ff 6abd
00000030: 7064 ad3d b328 613e 4357 8a3d 2ee3 2d3e
0.11225084 0.09532635 0.25253305 0.21872006 0.1881469 0.18709162 0.13513163 0.043927167
0.25392023 0.1217914 0.16847886 -0.057372175 0.084664226 0.21988182 0.06754925 0.16981193

conv2.conv_i.weight f4 [16, 32, 1, 1]
00000000: 46b4 9ebd ae17 db3c c396 acbc 70fe b53c
00000010: 9abb 623d ca18 1abd c974 80bd 8f71 a9bd
00000020: 40eb 023d e863 79bd 6a92 f2bc f02f 183b
00000030: 62db 93bc d0f8 09bd 72ca 4c3c c723 4e3d
00000040: f3a8 e53d ce2a 7f3c e3c0 0c3e 32fe c73c
00000050: fd64 133b 40d1 a6bd 45c8 b13d d441 27bd
00000060: 95ab d23c 21c0 063c ff45 d8bd 62bf 9a3c
00000070: 9a2d 8abb 41cd cbbc b0f1 6b3d e256 e3bc
00000080: 3543 493d 16a2 303d 0188 e03c b924 a53c
00000090: 1543 36bc 3a19 913c 99d4 c43d 1fd0 08be
000000a0: 205d f8b9 1685 6d3d 0c61 753b c8c5 e43c
000000b0: 076c d7bd 823c d13c 363a c3bd 08e9 c7bd
000000c0: 9a7f 22bc b68a 303c dcb8 f03c b2fe 6dbd
000000d0: 8723 5d3a 71a1 90bd 6364 18bc 823a 99bc
000000e0: f471 d13c 491e 0c3e c40f 80bd fb35 a23d
000000f0: 4b9f 38ba e275 52bb df27 533d e5aa b9bc
00000100: f770 8dbc 4755 333c a768 dbbc 49c2 37bb
00000110: 6b3c c83c 1854 fbbd 8d38 24bd 1537 abbc
00000120: 51fc ba3c 875a c33b 1cde 3c3c 8599 9d3b
00000130: d73a 163e 781e 21bc c685 2e3c abba 963d
00000140: a515 0f3c e074 6ebc 4728 87bc 5f7b c33c
00000150: dcf6 5738 8ef9 22bc 89e6 a4bd 263a 88bc
00000160: 9add 61bc b010 43bc 8133 443b ea0c 853b
00000170: 724d 853b 65ea 823d d1a8 753d 0747 18bc
00000180: 0f23 2d3d 7be2 48bd efce 283d 65ac 75bd
00000190: df6c 4cbd a7e2 03bd af0f d33d fbbb d53d
000001a0: 4261 9cbd 21db 2e3d c876 f1bc a663 5abd
000001b0: 7214 be3d 1f55 d23d 841d 27bd 17f1 c5bd
000001c0: 2ac7 9dbd 3cb1 213d c749 5dbd f114 8b3c
000001d0: 88cd 483c 6af4 ca3d 5055 8fbd 41c5 f03c
000001e0: 20bf a9bc 190f 883c 8576 a33d ac63 2ebb
000001f0: fb9e 90bc 2789 1b3d 7704 97bd d9bd f7bc
00000200: d511 933c 064d 74bd e634 3fbd 096e 8abc
00000210: 293f e83c 5858 68be ca62 d1bd c322 9c3d
00000220: 533d 203d c29f 0dbc a295 503d 40fa b63d
00000230: ba46 853e 357f 483d 3e1e 7bbd 3f8e 563d
00000240: f481 c43d fd17 abbc 66a6 a7bc 21fe fdbc
00000250: 2de9 383b 0fad e7bd 0002 0bbe 4715 1e3d
00000260: c39e a1bc 139a f13c a704 ddbd 7110 5a3d
00000270: 9345 acbb 8de1 bd3d 2f6a ed3c ffc2 edbc
00000280: 2da7 2ebd 717d 39bd cebe 5cb8 4ba3 853b
00000290: ba6d e33b a3ff 2b3d fe16 da3d 87ef 99bd
000002a0: d24e 2dbb d789 15bd 69d4 453d f734 3bbd
000002b0: 6b18 86bd 9977 6bbd f8ab 9a3c 8a2a 20be
000002c0: 1fd3 c93c 9bd1 513d d8c0 c33c cb7a 6f3a
000002d0: ac58 ca3c 6478 0e3a 76f6 d1bd b32a 713c
000002e0: de01 1b3b a8f2 e93c ee36 a6bb f89b bb3c
000002f0: 2967 e9bc 42e4 fe3d 6470 b73b 6e2b 42b9
00000300: 0faf a03d 9666 aebc 3152 1ebd 38d7 40bc
00000310: c36a 9f3c 5496 97bc 7726 723c 1a3d 0cbc
00000320: 40e2 cd3b 614d 9d3c f0c0 80bb 252b 173c
00000330: fbaa 283c b750 c23c 5cae ecbc 3f57 2d3d
00000340: f8f4 e23c f0a2 3abd c6dd d5bc 3c54 61bc
00000350: 3e44 b63c 8221 b9bc 7cfe de3c f067 853c
00000360: c0f8 a0ba faec 843d 649a 9b3b 1d7d ce3c
00000370: a332 57bc a9d2 26bd b41e 8abc 15dc 2cbd
00000380: ee83 ce3c 6edb 1fbd ad88 f3bc 5664 babc
00000390: 2e46 4a3c 8223 173e aa74 7e3d 9c02 b23d
000003a0: 4109 f7bb 47a2 f8bc f97a 613c 4a6b b13c
000003b0: 765f 2dbe 18c8 8e3b 230b 31bb 8093 b1bd
000003c0: 83a8 58bb a5e3 193c 00c0 c8bd f528 e03b
000003d0: ce72 9fbd a199 8f3a 658c a93d 643f 013d
000003e0: 4f9e 823b 2950 75bc fba6 feba a10e 893b
000003f0: 6c6a 8b3d accf 96bd a22b 19bd cdc1 4dba
-0.07749228 0.02674469 -0.021067983 0.022216052 0.055354692 -0.037621297 -0.06272275 -0.08273613
0.031962633 -0.060886294 -0.029610831 0.0023221932 -0.018048946 -0.03368455 0.012499439 0.05032709
0.11213865 0.01557417 0.13745455 0.024413202 0.0022490614 -0.0814538 0.086807765 -0.040834263
0.025716582 0.008224518 -0.10560226 0.018890087 -0.004216862 -0.024878146 0.057603538 -0.02775139
0.04913636 0.043123327 0.027408602 0.020159112 -0.011124392 0.017712224 0.09610862 -0.13360642
-0.0004737163 0.05798825 0.0037441878 0.02792634 -0.105186515 0.025541548 -0.09532587 -0.09761244
-0.009918118 0.010775259 0.029385023 -0.058104225 0.0008435775 -0.070620425 -0.009301278 -0.018704657
0.025567032 0.13683428 -0.06253007 0.07920452 -0.00070427795 -0.003211372 0.051551696 -0.022664497
-0.01726578 0.010945625 -0.0267833 -0.0028039387 0.024442872 -0.12271899 -0.040092994 -0.020900289
0.022825392 0.0059617194 0.011527564 0.0048095607 0.14670883 -0.0098339245 0.010652011 0.07359823
0.008733188 -0.014554232 -0.016498698 0.023862539 5.14899e-05 -0.009947194 -0.080517836 -0.01662929
-0.013785744 -0.011905834 0.0029937925 0.0040603774 0.00406807 0.063923635 0.05997545 -0.009294278
0.042269763 -0.049044114 0.041212972 -0.05997886 -0.049908515 -0.032198574 0.10305726 0.10436245
-0.07635738 0.042689446 -0.029475585 -0.05331769 0.092812434 0.10270142 -0.040799633 -0.09665125
-0.07704003 0.039475664 -0.054025438 0.01697776 0.012256034 0.099098995 -0.06998694 0.029390933
-0.020721018 0.016608762 0.0798159 -0.0026609702 -0.017653933 0.037972596 -0.073738985 -0.030241894
0.017952839 -0.059643768 -0.046681307 -0.016898172 0.02835043 -0.2268995 -0.10223921 0.07623818
0.039120983 -0.008644046 0.05092395 0.0893445 0.26030523 0.04894944 -0.061308138 0.05238175
0.09595099 -0.020885462 -0.020465087 -0.031004967 0.0028215155 -0.11312305 -0.13574982 0.03859451
-0.019729024 0.029492414 -0.10791903 0.053238336 -0.0052573173 0.09271536 0.028981296 -0.029023645
-0.0426399 -0.045285646 -5.2629788e-05 0.004078304 0.0069405707 0.04199184 0.10648917 -0.07516389
-0.0026444686 -0.036508407 0.048298273 -0.045704808 -0.06547626 -0.057487104 0.01888083 -0.15641227
0.024636803 0.051225286 0.023895666 0.0009135424 0.024700485 0.000543481 -0.10252087 0.014719653
0.0023652236 0.02855809 -0.005072466 0.02290152 -0.028491573 0.124458805 0.005598115 -0.0001851746
0.0784589 -0.021289151 -0.038652603 -0.011770062 0.019460088 -0.0185043 0.014779679 -0.00855949
0.0062830746 0.019201936 -0.00392925 0.009226595 0.010294671 0.023720128 -0.028891735 0.042319532
0.0277047 -0.045565546 -0.026106726 -0.013752993 0.022249337 -0.022598986 0.027220957 0.016284913
-0.0012281165 0.06490512 0.0047486294 0.025206143 -0.013134631 -0.040728245 -0.016860344 -0.042202074
0.025209393 -0.039027624 -0.029728258 -0.022752922 0.012345834 0.14759639 0.06212298 0.08691904
-0.007538945 -0.030350817 0.013762229 0.021657605 -0.16930947 0.004357349 -0.0027014695 -0.086707115
-0.0033059425 0.009392654 -0.09802246 0.00684082 -0.07785569 0.0010955819 0.08278731 0.031554595
0.003986157 -0.014972725 -0.0019428426 0.004182652 0.06807408 -0.07363829 -0.037395127 -0.0007849008

conv2.conv_i.bias f4 [16]
00000000: 9a82 13bb 375b 073d 2a71 3cbd f9bd 23bd
00000010: 2525 7ebd 5e32 5dbd 9176 84bb b8fd be3d
00000020: 1b05 f93c d09a 773c 5754 03bc b3ec d6bc
00000030: c34b b6bc 9e67 41bc 2452 1b3d e687 b63d
-0.0022508265 0.033045974 -0.04600636 -0.039976094 -0.062047143 -0.054003112 -0.0040424545 0.09325737
0.030397942 0.015112594 -0.008015714 -0.026235914 -0.022252923 -0.011804489 0.037920132 0.08912639

conv3.conv_r.weight f4 [1, 16, 5, 5]
00000000: 5439 15bb 888b 503c c83b 3c3c 7927 d239
00000010: a98c 1cbc 1dc0 9b3c feb8 503c 3687 6c3c
00000020: 81ba 203c 1019 a83c 6f15 233c 4be1 223c
00000030: 3a16 153c 4300 c53b 0cc1 8c3b a404 08bc
00000040: 4fe4 433b 4950 ba3b 536f a43a db47 dc3a
00000050: 9e97 d63c 5b85 953c 176f c33c 4fbf e43b
00000060: f190 3f3c fa51 3f3d b22d 313d d30b 373d
00000070: c792 3d3d 1596 2e3d bf3e 013c 84ba 243c
00000080: 8013 033c d9fa e93b 9fe0 803b c957 d83c
00000090: 845e 9b3c 3499 a83c 9bb5 993c cd8b 933c
000000a0: ba66 3f3c d056 713c f574 8c3c ecbb 703c
000000b0: 5c3a 863c 34cb 2b3d cd08 e13c f8a0 103d
000000c0: 07a8 ef3c 5cb0 e23c 3845 19be f088 d9bd
000000d0: 2af7 0fbe ebb6 d6bd 3fb8 9bbd 28ef 5cbd
000000e0: c43f 4bbd 2052 5dbd 5df2 3abd 6a2a b6bc
000000f0: 4e50 d2bd 7631 a8bd d0d8 c6bd 91ac 96bd
00000100: 71ab 81bd 8088 97bd 3f01 87bd 4220 83bd
00000110: af91 5ebd 3328 0dbd 2ea1 20be 9663 0ebe
00000120: ea67 35be 4e44 fcbd ed9d b4bd b016 be3c
00000130: 8cf8 453c 75d2 a63c 200f 0c3c f2e9 a93c
00000140: c1b5 bcbb b5ac 1abb cb37 303a 7b1f 00bb
00000150: b06c afbb 9150 97bb be5c bdba 1a22 703b
00000160: 5779 423b 773d 283c 3a9f 153c 53f5 393b
00000170: f1df 4f3b 74f3 0439 544d 273b f6fe f43b
00000180: b885 4d3c 5613 ef3c 45b7 b43c 974b ae3c
00000190: 170a b83d 1b2c dd3d 3b69 e93d ac64 a93d
000001a0: 4f2d cf3d 5d58 c23c 15a8 ef3c 951e 133d
000001b0: af23 cf3c 1cf1 e03c fc95 593d 7f70 823d
000001c0: 1519 993d d199 603d 9f89 803d 7a55 4c3d
000001d0: 771e 273d fccf 343d 1b22 263d 8392 1c3d
000001e0: eda3 943d 5aee c83d 2dbe be3d 273f 7a3d
000001f0: 0e81 b13d aa99 f6bc b221 23bd ade0 35bd
00000200: 4f7e f2bc 94e6 efbc 3891 6ebc e85f a9bc
00000210: 1612 9fbc 3df5 93bc 3aa6 87bc ef2a b7bc
00000220: 05be dcbc b878 ffbc 3011 bdbc d888 91bc
00000230: a7a9 b0bc 81d3 afbc ce70 a4bc 3357 82bc
00000240: 510f 85bc 5eab cfbc ecf4 2cbd f69d 18bd
00000250: 8c65 e6bc 2a4b f6bc 792b 323d 443d 533d
00000260: 0cad 773d e18c 553d cf25 8c3d 4d6c a33c
00000270: ee7d a03c c14a 933c 255c 863c 189c 9f3c
00000280: aae7 863c 3708 c73c b461 d03c de4e a53c
00000290: a132 dc3c 086d 563c abd3 883c 82e6 803c
000002a0: cd56 5e3c 66e8 5f3c 706f 2e3d 5f0f 343d
000002b0: 9b58 573d 0618 263d 58cd 693d fe10 a93d
000002c0: b220 a73d 65fe bd3d 1b9f 8c3d 4af3 5b3d
000002d0: 3e69 403d 3026 3c3d b85a 363d 174d 233d
000002e0: 27af e33c 4ab8 853d bdda 5c3d 3a66 773d
000002f0: 496c 483d 71c9 333d c1f0 313d 81ce 383d
00000300: 1e44 343d 92ac 1d3d 146c ba3c 6cb4 f03d
00000310: 7bee eb3d 8490 063e afcd c03d ba9e a03d
00000320: f858 523d 2785 6e3d c298 873d a74b 793d
00000330: b38a 293d 87b8 e73b 300c 9e3c 58b9 9a3c
00000340: 8458 943c c497 5d3c 0098 343d 1525 273d
00000350: 37d7 263d 92da 113d 9f66 083d 06ae 863a
00000360: 2b65 493c 93c1 903c e7f0 933c 6341 8a3c
00000370: 4259 573d cde5 7e3d 5a60 7d3d 6037 373d
00000380: bc6e 273d ef32 59bc a7d0 dabc 0c26 a7bc
00000390: 0c74 b6bc e658 d1bc 9a03 c03b 8434 743a
000003a0: 0098 133b 4c92 12ba 0771 563b 6533 80bc
000003b0: f09d 37bc 0e1c 1ebc 1f62 14bc aeea c2bb
000003c0: 4cdc 993a fd87 91bb f628 e8ba 2605 0abc
000003d0: 5a9a 1fbc 35f2 dcbb 643d ebbc 5189 2cbc
000003e0: 8877 13bc f12c 0dbc 4529 efbc 288c b1bc
000003f0: 25e3 04bd 9e6b c3bc 2404 16bd c3eb f2bc
-0.0022769766 0.012728579 0.011488862 0.0004008373 -0.00955502 0.019012505 0.012739418 0.014436534
0.009810091 0.020519763 0.009953841 0.009941409 0.0090995375 0.006011994 0.004295474 -0.008301888
0.0029890721 0.0056858403 0.0012545384 0.0016806083 0.026195344 0.018252065 0.023856683 0.0069808136
0.011692272 0.04670904 0.04325647 0.04468901 0.046282556 0.042623598 0.007888495 0.010054234
0.008000255 0.007140499 0.003933027 0.026409047 0.018965967 0.020580865 0.018763354 0.018010998
0.011682207 0.01473017 0.017145613 0.014693242 0.01638525 0.041941836 0.027470017 0.03530976
0.029254926 0.027671985 -0.14967811 -0.10621822 -0.1405913 -0.104841076 -0.076035015 -0.053939015
-0.04962136 -0.0540334 -0.045641292 -0.022237021 -0.10269223 -0.08212559 -0.097093225 -0.07357133
-0.06331528 -0.07399082 -0.065920345 -0.06402637 -0.054338153 -0.034462165 -0.15686485 -0.13905177
-0.17715421 -0.123177156 -0.088191845 0.023204178 0.012083184 0.020364026 0.008548528 0.020741437
-0.0057589714 -0.0023601477 0.0006722181 -0.0019550014 -0.0053535327 -0.0046177586 -0.0014447195 0.003664142
0.0029674375 0.010268561 0.009132201 0.0028374984 0.0031719173 0.00012679194 0.002552827 0.007476683
0.012544088 0.029184025 0.022060046 0.021276278 0.089862995 0.10799428 0.11397024 0.08271155
0.10116064 0.023723776 0.029254952 0.035917837 0.02528557 0.02745872 0.053121552 0.06369113
0.07475487 0.05483419 0.06276249 0.049886204 0.040800538 0.04414366 0.04055987 0.038225662
0.07257829 0.09811087 0.09313617 0.061095383 0.08667193 -0.03010257 -0.039827056 -0.04440372
-0.029601244 -0.029284753 -0.01456099 -0.020675614 -0.019417804 -0.018061275 -0.016558755 -0.02235934
-0.026946077 -0.031185493 -0.023079485 -0.017765447 -0.021565272 -0.021463158 -0.02007332 -0.01591072
-0.016242655 -0.025350269 -0.042225763 -0.03726002 -0.028124593 -0.030065138 0.04349849 0.0515721
0.060467765 0.052136306 0.06843149 0.019949103 0.019591298 0.017979981 0.01640136 0.019483611
0.016467888 0.02429591 0.025437213 0.020179208 0.02687961 0.0130875185 0.016702494 0.015734915
0.0135705 0.013666248 0.042586744 0.04395997 0.052574735 0.040550254 0.057080597 0.08255194
0.08160533 0.092770375 0.068662845 0.053698815 0.046975367 0.045934856 0.04452011 0.03986844
0.02779348 0.06529291 0.053919543 0.060400225 0.048931394 0.04389328 0.04344249 0.045118812
0.044010274 0.038494654 0.022756614 0.11753163 0.11520096 0.13141066 0.09414231 0.07842775
0.05135438 0.058232453 0.06620933 0.060863163 0.04139204 0.007071558 0.01929292 0.018887207
0.018108614 0.013524953 0.04409027 0.04080685 0.04073259 0.035608836 0.033300992 0.0010275252
0.012292187 0.017670428 0.018059207 0.016876882 0.052575357 0.062230874 0.061859466 0.044730544
0.04087709 -0.013256772 -0.026710821 -0.020403884 -0.022272132 -0.025555085 0.0058598043 0.0009315687
0.002252102 -0.0005591258 0.0032721178 -0.015649507 -0.011207089 -0.009650243 -0.009056597 -0.005948386
0.0011738627 -0.00444126 -0.0017712403 -0.008424079 -0.00974139 -0.0067427405 -0.028715797 -0.010530786
-0.009000666 -0.008616672 -0.029194484 -0.021673277 -0.032443184 -0.023855027 -0.036625043 -0.029653436

conv3.conv_i.weight f4 [1, 16, 5, 5]
00000000: 61fa 293d cb0f 0d3d 7ed0 b93d 4318 3a3d
00000010: 1ca2 803d dd26 b43c 1969 9b3c 8194 fa3c
00000020: c316 b13c cd80 683c 8961 083d b578 ea3c
00000030: fcd4 313d 57f7 e53c 6d40 ed3c 2c5c 7a3c
00000040: daad 653c bf7f eb3c c24f b63c d846 6c3c
00000050: d8c4 8f3d d7b5 423d 36a3 a03d ec2e 173d
00000060: b2b0 883d 9414 58bd d233 07bd 1e0f 6bbd
00000070: 7aaa 79bd bbd6 30bd 4cf8 0abd c7b0 fdbc
00000080: 2282 21bd e910 15bd 544f 24bd b286 29bd
00000090: a2dc 08bd 0088 42bd 2da7 2ebd f907 16bd
000000a0: c1cb b2bc cee0 b3bc 118c e2bc c03b d4bc
000000b0: 1fbf bfbc eefc b0bd 561e 67bd b9f1 aebd
000000c0: 397f a3bd bc44 89bd 7707 a53d 2caa 6d3d
000000d0: fed9 a83d a052 5a3d 65bb 423d 46b6 f53c
000000e0: 1be4 ce3c 9a5c ef3c 9b7e b33c 90fe 4e3c
000000f0: 8b41 5d3d 5c67 2e3d 02dc 5b3d 394c 263d
00000100: 8d61 213d c8b2 4c3d f212 2a3d 416f 3d3d
00000110: 38b4 133d ff05 073d e47c bb3d 9768 923d
00000120: f630 ac3d d4e4 7b3d 3e86 573d 6205 3cbd
00000130: 331a 5cbd b62f 8cbd ebbb 8fbd 7d47 41bd
00000140: a5b4 7fbc 78e3 6bbc 5d0e 80bc 17b1 a6bc
00000150: dc58 8bbc dc56 c8bc c363 c2bc b4ea 04bd
00000160: dff9 05bd 3834 1fbd 1489 c0bc 99a1 b0bc
00000170: 8eb4 c6bc b12a bdbc 1fdc 8ebc f675 23bd
00000180: 3d28 57bd aa51 91bd 6b0e 77bd 3e24 87bd
00000190: 199d 1d3c 20a7 1a3c e351 2e3b 242a fe3b
000001a0: 02e4 1bba a404 b1bb 2891 31bb bc67 d7ba
000001b0: 0789 d6ba 1045 4abb dd85 c53b 1c00 e93b
000001c0: ba28 0f3b b493 033a 3f1d 63ba 0d96 e93b
000001d0: 8c6f 7c3b fb96 a13b 1d3a 593b 369c dd3b
000001e0: 9771 8c3a 6777 193c 4a45 c8ba 1ccc c2bb
000001f0: 1620 1dbc 60fd e73d cb61 f53d aea2 1b3e
00000200: 6c77 133e 9418 f23d 6527 8a3d 77a0 943d
00000210: 9f58 9d3d b68a 8e3d a4a4 893d 759a 963d
00000220: 3d5d 923d 0a4c ac3d e791 933d 23ca 6f3d
00000230: e1d0 283d 426b 443d d125 633d 92ac 4b3d
00000240: 4bec 333d 9828 063e 918b 063e 57fe 0b3e
00000250: e186 e33d 9076 d73d de79 c0bd 0072 bebd
00000260: e5cd cdbd 32de bdbd 2d8d eebd 4e36 f4bc
00000270: 250f 06bd 57b2 00bd 6d17 e7bc 290c e2bc
00000280: fc20 1dbd 674d 3abd 8be2 39bd 56f9 16bd
00000290: 71a8 46bd ae39 16bd 7d7a 24bd 806b 1bbd
000002a0: deee 0cbd a9ad 0abd 5167 52bd 68e5 8fbd
000002b0: 3e77 80bd c22a 67bd cdf6 adbd 27b0 d6bd
000002c0: f0f3 a9bd 09bb bcbd de65 87bd bef3 28bd
000002d0: 8926 e0bc 0a8b ffbc ed7c fabc 5baf f9bc
000002e0: a47c cdbc 6ca0 78bd 15f2 50bd d017 70bd
000002f0: 5146 45bd faec 35bd a168 14bd ff12 00bd
00000300: 411c 0ebd 1742 0fbd 92d3 debc 07a1 e3bd
00000310: 2d90 c0bd 0f90 ebbd 6325 b4bd f85c 94bd
00000320: b9e8 adbd fe16 cdbd 74c4 eabd 7ba1 e4bd
00000330: 7244 aebd 7a40 12bd 23b2 18bd 849d 14bd
00000340: 95df 16bd 6f4c f2bc e7ae 94bd 9963 8ebd
00000350: eb5c 98bd 7008 92bd 4eef 79bd cd47 39bc
00000360: a19e b0bc 58ae ecbc df85 f6bc 75a0 bdbc
00000370: bddd 00be 3fd4 e4bd 06d3 ecbd ab9d e1bd
00000380: 2baf aebd 0365 91bd 7dd8 7ebd 47a7 8abd
00000390: 22e1 78bd 6795 70bd da52 d8bc 1436 b4bc
000003a0: 682d e4bc d617 b8bc 0af5 acbc 8dad 0cbd
000003b0: a464 16bd 3d75 25bd d783 0bbd 5078 35bd
000003c0: ed20 1abd fb7e 16bd e7d0 e7bc 66ee b1bc
000003d0: 5440 d7bb 56c1 3dbd b0d0 2dbd d3c8 66bd
000003e0: 59db fdbc da3c 3fbd bf4e a03d 58e5 7d3d
000003f0: 9e5a c03d 95ca c33d d33f ac3d 528e 2e3d
0.041498546 0.03443889 0.0907297 0.045433294 0.0628092 0.021991188 0.018971013 0.03058839
0.021617299 0.014190865 0.03329614 0.02862201 0.04341601 0.028072042 0.028961385 0.015280765
0.0140185 0.028747438 0.022254828 0.014421187 0.07019967 0.047536697 0.0784363 0.036909983
0.06674327 -0.052754 -0.033008404 -0.057387464 -0.060953595 -0.043173533 -0.0339282 -0.030968083
-0.039430745 -0.03639308 -0.040114716 -0.04138822 -0.033413537 -0.04749298 -0.0426399 -0.036628697
-0.021825673 -0.021957781 -0.02765468 -0.025907397 -0.023406563 -0.086419925 -0.056425415 -0.08542199
-0.0798325 -0.06702563 0.080580644 0.058023617 0.08244704 0.053301454 0.047541995 0.029994141
0.025255254 0.02921896 0.021910956 0.012633935 0.054017585 0.04257904 0.053676613 0.040600035
0.039399672 0.049975187 0.041521974 0.046248678 0.036060542 0.032964703 0.0915468 0.07148855
0.08407776 0.061497524 0.052618258 -0.04590357 -0.053735923 -0.06845038 -0.070182644 -0.047187317
-0.015607034 -0.0143974945 -0.015631849 -0.020348115 -0.017010145 -0.02445548 -0.02372921 -0.032450393
-0.032709 -0.03886816 -0.023502864 -0.02156143 -0.024256017 -0.023091646 -0.017438946 -0.03990742
-0.05252861 -0.07095654 -0.060316484 -0.065987095 0.0096199745 0.00943926 0.0026599101 0.0077564884
-0.00059467566 -0.0054021645 -0.0027094577 -0.0016434113 -0.0016367742 -0.0030863918 0.0060279206 0.0071106087
0.0021844343 0.0005019263 -0.0008663721 0.007128483 0.0038518636 0.0049313284 0.003314621 0.0067630066
0.0010715005 0.009366847 -0.0015279439 -0.005944742 -0.009590169 0.11327624 0.11981543 0.15198776
0.14401025 0.11821094 0.06745795 0.07257169 0.07682919 0.06960051 0.06720856 0.07353679
0.0714669 0.08412941 0.07205563 0.058542382 0.041214827 0.04795385 0.055455986 0.049725123
0.04392652 0.13101423 0.13139178 0.13671242 0.111097105 0.10520661 -0.09398244 -0.092990875
-0.10049037 -0.09270896 -0.11648021 -0.02981105 -0.032729287 -0.031420078 -0.028209412 -0.027593689
-0.038361534 -0.045483973 -0.045382064 -0.03685888 -0.048500482 -0.0366761 -0.040155876 -0.037944317
-0.03440749 -0.03385702 -0.05136806 -0.07026178 -0.06272744 -0.05643726 -0.08494339 -0.10482817
-0.082984805 -0.092153616 -0.066112265 -0.041248076 -0.027362125 -0.031194229 -0.030577147 -0.030479124
-0.025083847 -0.060699865 -0.051012117 -0.05861646 -0.048162762 -0.04441545 -0.036232594 -0.031268116
-0.034694914 -0.034975138 -0.027200494 -0.11114698 -0.09402499 -0.11502086 -0.087961935 -0.07244295
-0.08491654 -0.10014151 -0.11463252 -0.111636125 -0.08509149 -0.03570602 -0.03727926 -0.03628303
-0.03683432 -0.029577462 -0.072599225 -0.069525905 -0.07439598 -0.071305156 -0.061019234 -0.011308623
-0.021560015 -0.028891727 -0.030093132 -0.023147801 -0.12584586 -0.11173295 -0.11563687 -0.11016401
-0.085295044 -0.070993446 -0.062218178 -0.06770187 -0.06076158 -0.05873623 -0.026406694 -0.021998443
-0.027853683 -0.022472303 -0.021112937 -0.0343452 -0.036717072 -0.04039501 -0.03406128 -0.044304192
-0.037629057 -0.03674219 -0.028297855 -0.021720123 -0.006568948 -0.046326958 -0.042435348 -0.056343865
-0.030988382 -0.046688892 0.078275196 0.061986297 0.09392284 0.09560124 0.08410611 0.042616196
